convolutional_neural_networks/cnn_in_depth/cifar_cnn_image_classification/cifar10_best_valid.pt (torch, 627335 bytes, 10 tensors)

model.0.weight f4 [16, 3, 3, 3]
-0.26141194 -0.21675684 -0.14300612 -0.5374127 -0.173552 -0.505541 -0.16009033 -0.29799733
-0.05251748 -0.19663179 -0.12031516 0.03675861 -0.026520772 -0.053365108 -0.063073866 -0.04911231
0.03577106 -0.061521847 0.19539091 0.18685894 -0.043353546 0.44349924 0.279876 0.30723193
0.38691568 0.50156564 0.34142756 -0.6799012 -0.58228636 -0.47307652 0.2755799 0.6304549
0.46938622 0.3145598 -0.030988187 -0.033888377 -0.3697111 -0.69562143 -0.27370003 0.3919848
0.6205783 0.45372114 0.071328014 0.039199546 -0.06673151 -0.27785295 -0.5905926 -0.3211807
0.11870448 0.55621314 0.5081027 0.13630094 -0.038850985 -0.25407526 0.24580011 0.30622333
0.43719837 -0.16070394 -0.108693466 -0.24843219 -0.057466745 -0.28931764 -0.39285034 0.25615117
0.7139874 0.7442171 0.23777042 -0.205803 -0.23805572 -0.3495556 -0.54211915 -0.4249496
0.24579808 0.42289042 0.43795818 0.15159298 -0.03634661 -0.358808 -0.14563459 -0.32879186
-0.45028105 0.12573299 -0.26078194 -0.13298085 -0.08677935 -0.31991342 -0.22432901 0.16191313
-0.19011451 -0.036081117 0.1447005 -0.061131194 -0.2601838 0.12732516 -0.30049756 -0.26399255
-0.15988255 0.07733754 0.17030303 0.046765998 -0.009439594 -0.23071195 0.027866272 0.009187767
-0.0028433916 -0.12579866 0.19617239 -0.1401637 -0.08872339 -0.22863017 0.25083172 -0.4185407
0.35221437 0.4795859 -0.09093443 0.5517048 -0.26572567 -0.6436812 -0.2650974 0.26950753
-0.73241657 0.3059202 0.37521607 -0.24633314 0.4973823 -0.37509072 -0.42742878 -0.19892794
0.25355253 -0.6141524 0.4013107 0.47309896 0.031303782 0.3934576 -0.019254833 0.120443724
-0.51140684 0.27743298 -0.11127664 -0.103435166 0.314912 0.25482568 -0.117600694 -0.14298981
0.25907004 -0.5010791 0.32011068 -0.1428767 -0.24770513 0.42743614 -0.11569173 -0.007089916
0.0057697254 0.07346991 -0.28930983 0.23827258 -0.06804729 -0.23360029 0.30604842 0.28657386
0.059758697 -0.22614038 0.016813427 0.016365206 -0.14143534 -0.24858609 -0.005493463 -0.090602815
-0.20975626 0.04712438 -0.0016189154 -0.10634374 0.09042108 -0.044810206 -0.0629861 -0.013309739
-0.04513702 -0.055931605 -0.0024190305 -0.107604906 0.0729546 -0.07111158 0.14667934 0.13596015
0.22898479 0.08134968 0.26927975 0.25274247 0.021040153 -0.20190921 0.18043889 0.12598413
-0.07383294 -0.04964467 0.06513974 -0.24690016 0.15408994 0.28881508 0.040718917 -0.009921755
0.03824897 -0.049355287 0.22438107 0.2868484 -0.17545997 0.1875455 0.21515958 -0.41665134
-0.014961008 0.09514834 -0.37667078 -0.028466266 -0.0047372603 -0.44065788 -0.17343777 0.13508296
0.37501425 0.28927082 0.28443652 0.5674927 0.47715408 0.27630207 0.31553036 0.102091484
-0.036217548 -0.14140007 -0.21134235 -0.2625018 -0.19674663 -0.25733945 -0.04172689 -0.21259421
-0.15336701 -0.11068026 -0.27921236 -0.14258115 -0.02079028 -0.40458944 -0.29478312 -0.2628884
-0.092150815 0.06813977 0.23008336 -0.062408492 -0.2013352 -0.16360389 0.026650574 0.32191625
0.1677668 0.22235192 0.38458937 0.3772216 -0.19286704 -0.34040523 -0.41260982 0.15761004
00000000: c9d7 85be 81f5 5dbe 3270 12be e193 09bf
00000010: 9eb7 31be 236b 01bf b8ee 23be 1b93 98be
00000020: 921c 57bd d859 49be cb67 f6bd 3290 163d
00000030: 1742 d9bc 5f95 5abd df2c 81bd fd29 49bd
00000040: ad84 123d 55fe 7bbd 8e14 483e f357 3f3e
00000050: 7d93 31bd 5512 e33e e84b 8f3e 814d 9d3e
00000060: d019 c63e 9b66 003f 98cf ae3e 010e 2ebf
00000070: b810 15bf 1637 f2be cf18 8d3e 7e65 213f
00000080: 6453 f03e fb0d a13e f0da fdbc 8ace 0abd
00000090: c64a bdbe 3f14 32bf 6922 8cbe 3bb2 c83e
000000a0: 38de 1e3f 234e e83e 6c14 923d b48f 203d
000000b0: 88aa 88bd be42 8ebe 1431 17bf cc71 a4be
000000c0: 561b f33d fc63 0e3f 0513 023f 7992 0b3e
000000d0: 3622 1fbd 2716 82be 06b3 7b3e 4ec9 9c3e
000000e0: 77d8 df3e 938f 24be ae9a debd 0265 7ebe
000000f0: 4062 6bbd 7121 94be ae23 c9be 3f26 833e
00000100: e1c7 363f 0385 3e3f 177a 733e 06be 52be
00000110: e1c4 73be f4f8 b2be 52c8 0abf fe92 d9be
00000120: 7eb2 7b3e 1885 d83e 0e3c e03e 313b 1b3e
00000130: 2fe0 14bd afb5 b7be 3c21 15be 6857 a8be
00000140: 3d8b e6be 26c0 003e 3685 85be 222c 08be
00000150: 5fb9 b1bd b1cb a3be 81b6 65be 8ecc 253e
00000160: 61ad 42be cbc9 13bd 5e2c 143e b464 7abd
00000170: d036 85be 8761 023e d1da 99be 082a 87be
00000180: 40b8 23be 2563 9e3d eb63 2e3e b48d 3f3d
00000190: 87a8 1abc c13f 6cbe cf47 e43c 4a88 163c
000001a0: 3258 3abb 5dd1 00be 6ae1 483e 1387 0fbe
000001b0: 9cb4 b5bd 071e 6abe 046d 803e f74a d6be
000001c0: 7155 b43e 488c f53e d53b babd 873c 0d3f
000001d0: 320d 88be 4bc8 24bf d9ba 87be e4fc 893e
000001e0: a77f 3bbf 93a1 9c3e 521c c03e c13e 7cbe
000001f0: e5a8 fe3e e40b c0be f2d7 dabe c4b3 4bbe
00000200: a3d1 813e 1739 1dbf 9978 cd3e 073a f23e
00000210: 6538 003d 4673 c93e 50bc 9dbc 33ab f63d
00000220: 8feb 02bf b20b 8e3e 02e5 e3bd d1d5 d3bd
00000230: 253c a13e 8378 823e a2d8 f0bd ec6b 12be
00000240: d4a4 843e b846 00bf 8ce5 a33e 454e 12be
00000250: 6aa6 7dbe e9d8 da3e c9ef ecbd 8752 e8bb
00000260: f70f bd3b 6477 963d 6b20 94be bafd 733e
00000270: 615c 8bbd ea34 6fbe 61b2 9c3e cfb9 923e
00000280: 89c5 743d 5891 67be 50bc 893c 5310 863c
00000290: 6dd4 10be 5a8d 7ebe 8202 b4bb f88d b9bd
000002a0: 58ca 56be 7e05 413d c931 d4ba bfca d9bd
000002b0: b02e b93d e88a 37bd dbfe 80bd 1711 5abc
000002c0: 99e1 38bd 8a18 65bd 9988 1ebb f65f dcbd
000002d0: 3969 953d f3a2 91bd 1c33 163e 2339 0b3e
000002e0: fd7a 6a3e a99a a63d 09df 893e 7667 813e
000002f0: 665c ac3c 4ac1 4ebe f9c4 383e fc01 013e
00000300: b935 97bd 3658 4bbd fc67 853d 65d3 7cbe
00000310: c1c9 1d3e 92df 933e e1c8 263d db8e 22bc
00000320: f4aa 1c3d c528 4abd 27c4 653e cbdd 923e
00000330: c7ab 33be ed0b 403e cb52 5c3e 5353 d5be
00000340: 041f 75bc 22dd c23d feda c0be 1632 e9bc
00000350: 053b 9bbb e99d e1be ac99 31be 3053 0a3e
00000360: de01 c03e 4e1b 943e aaa1 913e 3447 113f
00000370: 8a4d f43e 7777 8d3e 328d a13e 5715 d13d
00000380: da58 14bd 2ecb 10be 216a 58be a366 86be
00000390: f377 49be ffc1 83be d1e9 2abd 4cb2 59be
000003a0: 3e0c 1dbe 55ac e2bd ecf4 8ebe cb00 12be
000003b0: 6150 aabc 5926 cfbe d0ed 96be 4f99 86be
000003c0: 91b9 bcbd dd8c 8b3d f99a 6b3e 0ca0 7fbd
000003d0: d12a 4ebe c787 27be 4e52 da3c 35d2 a43e
000003e0: 0fcb 2b3e 39b0 633e e6e8 c43e 3123 c13e
000003f0: f07e 45be 9849 aebe 9841 d3be 8764 213e

model.0.bias f4 [16]
0.59563804 -0.013663008 0.011140151 -0.38341698 0.013213628 0.04880884 -0.22824197 0.2807106
-0.21630634 0.40454948 0.0006151074 -0.33534345 0.084465764 -0.07530553 0.071614936 0.25946894
00000000: bc7b 183f cfda 5fbc 2e85 363c 3b4f c4be
00000010: f97d 583c c7eb 473d 43b8 69be 4db9 8f3e
00000020: 697f 5dbe 1c21 cf3e 293f 213a 23b2 abbe
00000030: 63fc ac3d c939 9abd daaa 923d 1dd9 843e

model.3.weight f4 [32, 16, 3, 3]
0.19110326 0.013604416 -0.20551543 0.17837916 -0.052549016 -0.07613322 0.2189692 0.03695033
-0.08884465 -0.045306932 -0.032678433 -0.11939222 -0.14021108 -0.19986027 -0.08552095 -0.17920578
-0.07501533 -0.0013375571 0.0030387465 0.0676997 0.025922893 -0.0030565732 -0.005711181 -0.0106757
0.08373322 0.06887161 -0.022691634 -0.085018724 -0.043624524 0.0031224696 -0.065885216 0.06056452
0.136106 -0.009738649 0.05242122 0.042501483 0.01938238 -0.17399663 -0.12737063 -0.047411602
-0.18435794 -0.115550384 0.01849792 -0.11205091 -0.13947795 -0.10250451 -0.16980115 -0.13177845
-0.057330888 -0.09666643 -0.040037405 0.004364329 -0.12889482 -0.08533354 0.053294763 -0.01118113
-0.0476888 0.0056280945 -0.059600707 0.019059699 -0.046302155 0.032962974 0.059771705 -0.10208999
-0.07231256 -0.036272373 -0.08435255 -0.020879941 0.11237794 -0.11590259 -0.09243085 0.05654674
-0.03237375 -0.007574324 0.11978273 -0.124550775 0.03858541 0.1521245 -0.038260296 -0.008522318
0.17911807 0.165248 -0.04547015 -0.05285515 0.06823975 -0.06112652 -0.085541464 0.092443265
-0.07023535 -0.10221709 0.092310846 -0.03858133 -0.050165024 0.11733444 -0.06397773 -0.080948874
-0.04010549 -0.107588865 -0.10028329 -0.021837484 -0.080829665 0.050603915 -0.0042810487 -0.07082404
0.028776985 -0.06436858 0.0035812708 0.0092838565 0.08457676 0.09858059 0.08536983 0.23866072
0.15916578 0.041697454 0.2249219 0.13414186 -0.009842826 0.04812388 -0.1046169 -0.04360785
-0.0069829146 -0.05737952 0.04178746 0.07121546 -0.027919931 -0.087141745 -0.04258299 -0.17997374
0.009800921 -0.123862095 -0.13545287 -0.054410156 -0.13027495 -0.0036649352 0.085712455 0.105578884
-0.03556101 -0.06756077 0.1178791 -0.046196215 -0.0047677504 0.09425104 -0.055042095 -0.026988717
-0.14732327 -0.08199302 0.04724901 0.008730088 0.046264246 0.190017 -0.0623521 -0.039183583
0.14032431 0.00064240256 0.06385506 0.014330971 0.03517999 0.013441805 0.14586635 -0.10822977
-0.08766204 0.052646786 0.053575717 -0.06104007 -0.016519127 -0.057707272 -0.04417116 0.039859213
-0.16309163 -0.003214894 -0.005320399 -0.11003688 -0.011087386 -0.046757203 -0.06755903 -0.036674544
-0.135973 0.022051519 -0.0522987 -0.15104827 -0.112810194 -0.09567818 -0.02120759 -0.07937946
-0.013856668 0.019959712 -0.100336805 0.08157378 0.10633888 0.058314644 -0.09970676 -0.022711035
-0.08663613 0.0935183 0.05967714 -0.06593739 0.06865506 0.12460908 -0.08306799 -0.08058192
-0.005672895 -0.07413355 -0.053652696 -0.032218277 0.040811267 -0.058935236 -0.04124909 0.053168137
0.040174156 -0.07145019 0.09022354 0.049226362 0.021659778 0.010670849 0.10961964 0.0523382
0.07606767 -0.075104795 -0.11826325 0.0034930708 -0.051829074 -0.12905538 0.05466021 0.05710535
-0.08828902 -0.17717946 -0.0036210555 0.10691011 -0.09656762 -0.040705632 0.21472861 -0.13317163
-0.061978538 0.038482968 -0.12762278 0.018501027 0.12082985 -0.076547414 0.077268094 0.09699975
-0.15792687 -0.100165404 0.10190329 -0.033184804 0.0315968 -0.02568581 0.06872349 0.020072129
-0.04153284 0.12826006 0.06547061 0.073079295 -0.032646153 -0.060708318 -0.027510336 -0.17641209
00000000: 93b0 433e 0ee5 5e3c a372 52be 07a9 363e
00000010: a33d 57bd bceb 9bbd 7639 603e 3b59 173d
00000020: 2ff4 b5bd c393 39bd d2d9 05bd e983 f4bd
00000030: 7e93 0fbe 2ca8 4cbe 9c25 afbd b881 37be
00000040: a3a1 99bd f850 afba b525 473b 24a6 8a3d
00000050: 3f5c d43c ca50 48bb dc24 bbbb 22e9 2ebc
00000060: 537c ab3d 8f0c 8d3d cee3 b9bc 4c1e aebd
00000070: a1af 32bd 59a2 4c3b d4ee 86bd 8112 783d
00000080: 5f5f 0b3e db8e 1fbc a2b7 563d 0916 2e3d
00000090: ccc7 9e3c 2c2c 32be 726d 02be ab32 42bd
000000a0: 54c8 3cbe aea5 ecbd f388 973c f37a e5bd
000000b0: 4fd3 0ebe e2ed d1bd 5ae0 2dbe eef0 06be
000000c0: cbd3 6abd 0df9 c5bd 43fe 23bd a502 8f3b
000000d0: 01fd 03be 5ac3 aebd 9c4b 5a3d 0f31 37bc
000000e0: 5555 43bd e16b b83b df1f 74bd 1623 9c3c
000000f0: 54a7 3dbd 2f04 073d 2dd3 743d 8f14 d1bd
00000100: 9c18 94bd 5792 14bd 08c1 acbd 690c abbc
00000110: 6826 e63d 565e edbd 634c bdbd 8e9d 673d
00000120: 569a 04bd 0932 f8bb a650 f53d 7a14 ffbd
00000130: bc0b 1e3d 86c6 1b3e d4b6 1cbd 31a1 0bbc
00000140: ba6a 373e c636 293e e83e 3abd a47e 58bd
00000150: 48c1 8b3d cd5f 7abd 5d30 afbd e552 bd3d
00000160: 8dd7 8fbd 3257 d1bd 780d bd3d 7507 1ebd
00000170: d779 4dbd 0a4d f03d c206 83bd 86c8 a5bd
00000180: a745 24bd 8d57 dcbd 5361 cdbd 86e4 b2bc
00000190: 068a a5bd 0d46 4f3d 0a48 8cbb 320c 91bd
000001a0: b6bd eb3c add3 83bd c1b3 6a3b 511b 183c
000001b0: 9536 ad3d 9fe4 c93d 61d6 ae3d 7a63 743e
000001c0: 5bfc 223e f3ca 2a3d ed51 663e 7c5c 093e
000001d0: ce43 21bc 8c1d 453d 6341 d6bd 259e 32bd
000001e0: efd0 e4bb ca06 6bbd 5429 2b3d 69d9 913d
000001f0: 57b8 e4bc 5f77 b2bd 806b 2ebd 094b 38be
00000200: 0b94 203c 69ab fdbd 28b4 0abe 2fdd 5ebd
00000210: cc66 05be 692f 70bb 038a af3d be39 d83d
00000220: 6ca8 11bd 4d5d 8abd 996a f13d 3e38 3dbd
00000230: ca3a 9cbb b006 c13d d273 61bd 7117 ddbc
00000240: e9db 16be f5eb a7bd 2e88 413d a508 0f3c
00000250: 947f 3d3d d193 423e ea64 7fbd f77e 20bd
00000260: 2db1 0f3e e866 283a 71c6 823d 73cc 6a3c
00000270: e518 103d 043b 5c3c fd5d 153e 92a7 ddbd
00000280: 2888 b3bd 28a4 573d 3672 5b3d 2705 7abd
00000290: 1f53 87bc 765e 6cbd d1ec 34bd 6a43 233d
000002a0: 7e01 27be f9b0 52bb be56 aebb 045b e1bd
000002b0: dea7 35bc 7b84 3fbd 645c 8abd 0c38 16bd
000002c0: 823c 0bbe 63a5 b43c 2937 56bd 66ac 1abe
000002d0: 0809 e7bd ecf2 c3bd 8abb adbc b391 a2bd
000002e0: 1407 63bc 8d82 a33c 627d cdbd 2710 a73d
000002f0: 33c8 d93d 56db 6e3d 0f33 ccbd 7e0c babc
00000300: 496e b1bd 8686 bf3d 0470 743d 2f0a 87bd
00000310: 069b 8c3d 0c33 ff3d 8d1f aabd 2208 a5bd
00000320: b1e3 b9bb 55d3 97bd eec2 5bbd 50f7 03bd
00000330: b729 273d 1366 71bd cef4 28bd d5c6 593d
00000340: a88d 243d 7a54 92bd 1fc7 b83d 95a1 493d
00000350: d96f b13c c9d4 2e3c 4380 e03d 9560 563d
00000360: 5ec9 9b3d 8bd0 99bd 0134 f2bd 01ec 643b
00000370: b94a 54bd 1827 04be 62e3 5f3d 4de7 693d
00000380: e0d0 b4bd 886e 35be 3b4f 6dbb b0f3 da3d
00000390: 3fc5 c5bd f3ba 26bd d1e1 5b3e 255e 08be
000003a0: 35dd 7dbd 51a0 1d3d 8caf 02be 778f 973c
000003b0: a475 f73d e4c4 9cbd bc3e 9e3d cea7 c63d
000003c0: 95b7 21be 8523 cdbd acb2 d03d caec 07bd
000003d0: a56b 013d 0c6b d2bc e7be 8c3d 4e6e a43c
000003e0: 571e 2abd 9b56 033e 7515 863d 99aa 953d
000003f0: f9b7 05bd 49a9 78bd 5b5d e1bc 5fa5 34be

model.3.bias f4 [32]
0.04849605 -0.088259794 0.03840037 -0.08263027 -0.3610209 0.055767603 -0.16106278 0.6113145
0.24288273 0.047502637 0.0661502 0.42966905 0.39120558 -0.16160148 -0.13529246 -0.015290379
0.10520006 -0.5764784 0.021905486 -0.07468105 -0.35642567 0.56662065 -0.18602908 -0.040801365
-0.08567083 -0.13804236 -0.31261086 -0.09992381 -0.1552107 -0.13416255 -0.0817138 -0.053990122
00000000: cba3 463d 8dc1 b4bd b549 1d3d 0f3a a9bd
00000010: bbd7 b8be 926c 643d a4ed 24be 1b7f 1c3f
00000020: 40b6 783e 2092 423d c279 873d 95fd db3e
00000030: 194c c83e dc7a 25be 1b8a 0abe 7f84 7abc
00000040: 2173 d73d 1794 13bf 2273 b33c 61f2 98bd
00000050: 6d7d b6be 0d0e 113f 687e 3ebe 551f 27bd
00000060: 3074 afbd fa5a 0dbe 880e a0be dba4 ccbd
00000070: 8eef 1ebe e861 09be 9159 a7bd bf24 5dbd

model.6.weight f4 [64, 32, 3, 3]
-0.04797711 -0.026786853 0.02185281 -0.010747792 -0.026189169 0.11607459 -0.022645168 -0.030203793
0.06531245 0.06428834 0.11989185 0.05281092 0.088678636 0.07554568 -0.010847121 0.08071366
0.018146018 0.04095129 -0.085621506 -0.028196875 0.10389937 -0.07290461 0.03594595 0.10430517
-0.0016193946 0.15675293 0.04470276 -0.0070597236 -0.0008838741 0.04381852 -0.030670406 -0.0060114367
0.006725972 0.0018925422 -0.022178827 0.049781863 -0.045214526 0.00049883977 -0.10428315 0.036090977
-0.048905917 -0.04443847 0.063240685 0.03510206 -0.06457642 -0.04411473 -0.034910616 -0.013296767
-0.06350857 -0.065816686 -0.027904794 -0.054341815 -0.060137242 0.057951834 0.0027875206 -0.10588194
0.019687975 -0.077786535 -0.14890659 -0.12477044 -0.17259154 -0.09745207 -0.12786143 0.12642874
-0.01024764 -0.024504552 0.056040466 -0.014334461 -0.055019096 -0.046560023 -0.05272977 0.036533844
-0.008127655 0.054726165 0.07723756 -0.050212827 -0.0639702 0.002653731 -0.020714214 -0.057573788
0.018079547 -0.08873588 0.07904327 -0.013649898 -0.027139302 -0.07521926 -0.02677469 0.005913855
-0.005736236 0.014579543 -0.06198388 0.017649025 -0.03026935 -0.030406881 0.022494743 -0.075685866
-0.066757165 -0.06966495 -0.036781512 -0.005428445 -0.0116069885 0.026293883 -0.010734736 -0.079600334
-0.075506546 -0.08683407 -0.028621897 0.037359636 0.019136522 0.046732634 -0.010616508 0.03106297
-0.0944539 -0.05812873 0.05946765 -0.01989535 -0.062308036 -0.05416404 -0.012210254 -0.02510355
-0.08231761 0.054663107 0.020028956 -0.004851061 0.07240157 0.031683747 0.0020794752 0.075689346
0.13998644 0.021545442 0.079852216 -0.008030045 0.030829951 -0.037551858 0.08861965 0.057110094
0.033003803 -0.035974484 -0.044808496 -0.015634248 0.07286716 0.06030546 0.0834247 0.08933605
0.060220182 0.060485177 -0.047464613 0.009650958 -0.017309694 -0.015613495 0.14326233 0.025902988
-0.04704418 -0.09122434 0.049603034 -0.009447681 -0.09101174 -0.019194994 0.057870187 -0.0031644427
0.07451877 -0.09149607 -0.05422006 -0.018365404 -0.028381046 -0.10520358 -0.0957156 0.013730885
-0.063175514 0.02395347 0.013986802 -0.08402141 -0.042677145 0.030108593 -0.07915953 -0.030291388
0.03694424 -0.095185265 -0.026302392 -0.0364947 0.000668454 0.10354672 0.09888494 0.00027531057
0.032135144 -0.037094526 0.01969109 -0.016558645 -0.04900836 -0.06327954 -0.06079268 0.061245784
0.031303965 -0.014678214 0.07358213 0.045273643 0.008557329 -0.045593802 0.07254384 0.06969383
0.08965598 -0.0012963136 0.04961631 -0.012823823 -0.055275247 -0.029442562 0.0064637065 0.0035864466
0.03111901 0.02960774 0.02322757 -0.03829265 0.059261464 0.04668449 0.05051902 -0.062084723
0.06880995 0.09581411 -0.03736311 0.1286349 -0.01863601 0.023636347 0.02377743 -0.01720017
0.032591186 -0.13376749 0.01319749 0.053815283 -0.06992094 0.09457686 0.12608178 -0.110086724
-0.093168445 0.010380188 0.0016915825 -0.027214585 0.0070085344 -0.06279125 -0.00582744 -0.013088619
0.03033227 0.047041684 0.04397665 -0.08647775 -0.026001489 -0.0010887558 -0.008958535 0.0021823186
0.10791604 -0.02873587 0.017203528 0.09954215 -0.064884186 -0.013237336 -0.027434899 0.021575255
00000000: a583 44bd 1a70 dbbc aa04 b33c 8217 30bc
00000010: ab8a d6bc 84b8 ed3d 5c82 b9bc f26d f7bc
00000020: 89c2 853d 9ba9 833d dc89 f53d 4350 583d
00000030: 259d b53d b2b7 9a3d 1fb8 31bc 344d a53d
00000040: f5a6 943c 8abc 273d 545a afbd 22fd e6bc
00000050: 31c9 d43d 034f 95bd 0f3c 133d f39d d53d
00000060: de41 d4ba d783 203e 3e1a 373d 4155 e7bb
00000070: c9b3 67ba 0c7b 333d 8140 fbbc 96fb c4bb
00000080: 8b65 dc3b 2e0f f83a 5fb0 b5bc 11e8 4b3d
00000090: de32 39bd 92c4 023a 6792 d5bd 22d4 133d
000000a0: 9251 48bd 1d05 36bd 5584 813d 2dc7 0f3d
000000b0: a440 84bd a6b1 34bd 6ffe 0ebd afda 59bc
000000c0: c810 82bd e6ca 86bd 9898 e4bc 8695 5ebd
000000d0: 7852 76bd e75e 6d3d d6ae 363b a1d8 d8bd
000000e0: ad48 a13c 8c4e 9fbd f87a 18be a587 ffbd
000000f0: d6bb 30be f394 c7bd 1bee 02be 8976 013e
00000100: b8e5 27bc c5bd c8bc b08a 653d 16db 6abc
00000110: b45b 61bd b9b5 3ebd 2cfb 57bd 83a4 153d
00000120: db29 05bc 8b28 603d ba2e 9e3d f7ab 4dbd
00000130: cf02 83bd 38ea 2d3b dbb0 a9bc 7ed2 6bbd
00000140: 8f1b 943c 28bb b5bd 70e1 a13d d2a3 5fbc
00000150: 3e53 debc 8e0c 9abd 9856 dbbc 03c9 c13b
00000160: 09f7 bbbb 09df 6e3c cfe2 7dbd b094 903c
00000170: 6ef7 f7bc da17 f9bc e546 b83c 3101 9bbd
00000180: fbb7 88bd 7fac 8ebd 36a8 16bd 19e1 b1bb
00000190: 3d2b 3ebc 4566 d73c bfe0 2fbc 8005 a3bd
000001a0: 2da3 9abd 10d6 b1bd 7878 eabc 6b06 193d
000001b0: 32c4 9c3c b86a 3f3d ddf0 2dbc c577 fe3c
000001c0: 0c71 c1bd 6418 6ebd 5a94 733d 93fb a2bc
000001d0: b636 7fbd 1ddb 5dbd 840d 48bc f6a5 cdbc
000001e0: 2396 a8bd 6ce6 5f3d c413 a43c a6f5 9ebb
000001f0: 4647 943d d1c6 013d ce47 083b 0403 9b3d
00000200: 9b58 0f3e 1180 b03c 8f89 a33d 7390 03bc
00000210: 188f fc3c facf 19bd 387e b53d 46ec 693d
00000220: ff2e 073d fb59 13bd 1d89 37bd 6513 80bc
00000230: 613b 953d dc02 773d 92da aa3d d2f5 b63d
00000240: 70a9 763d 4ebf 773d 416a 42bd 0d1f 1e3c
00000250: 0fcd 8dbc bfcf 7fbc 5cb3 123e 8132 d43c
00000260: 66b1 40bd d4d3 babd 8d2c 4b3d 72ca 1abc
00000270: 5d64 babd d23e 9dbc 4a09 6d3d 8a62 4fbb
00000280: 4c9d 983d 4b62 bbbd db15 5ebd 0b73 96bc
00000290: 5e7f e8bc f974 d7bd 8a06 c4bd 82f7 603c
000002a0: 2a62 81bd 113a c43c e628 653c 6b13 acbd
000002b0: 3bce 2ebd 4ca6 f63c 641e a2bd a525 f8bc
000002c0: d852 173d 7ef0 c2bd 1d78 d7bc 777b 15bd
000002d0: 303b 2f3a 4e10 d43d 3084 ca3d 8f57 9039
000002e0: 24a0 033d 6ef0 17bd 354f a13c ffa5 87bc
000002f0: fdbc 48bd b498 81bd bf01 79bd dcdc 7a3d
00000300: 9638 003d e47c 70bc 3ab2 963d db70 393d
00000310: 0a34 0c3c 91c0 3abd dd91 943d a4bb 8e3d
00000320: 8e9d b73d 11e9 a9ba 793a 4b3d 031b 52bc
00000330: 4c68 62bd 8731 f1bc 80cd d33b 970a 6b3b
00000340: 4bed fe3c ee8b f23c bf47 be3c c1d8 1cbd
00000350: 26bc 723d 3c38 3f3d 08ed 4e3d 8d4c 7ebd
00000360: 3bec 8c3d 303a c43d 0f0a 19bd deb8 033e
00000370: 8caa 98bc 03a1 c13c e3c8 c23c 5fe7 8cbc
00000380: 567e 053d 58fa 08be 493a 583c 6a6d 5c3d
00000390: b632 8fbd 83b1 c13d 951b 013e 2675 e1bd
000003a0: 19cf bebd aa11 2a3c 17b8 dd3a 1ff1 debc
000003b0: d9a7 e53b b398 80bd 1cf4 bebb a671 56bc
000003c0: 617b f83c c8ae 403d dc20 343d 3f1b b1bd
000003d0: 1301 d5bc 95b4 8eba d2c6 12bc 3b05 0f3b
000003e0: 1603 dd3d 7d67 ebbc 6aee 8c3c c1dc cb3d
000003f0: 00e2 84bd 69e1 58bc 27bf e0bc 97be b03c

model.6.bias f4 [64]
-0.13265167 -0.16007257 -0.057468113 -0.10516084 -0.16819093 0.28652614 0.051626544 0.06353631
0.16741784 0.18136434 -0.20372385 -0.19349198 -0.12193606 0.2530519 0.04384828 0.17533757
-0.10430435 -0.061527845 -0.1425317 0.19064893 0.035080384 0.10523175 -0.040968604 -0.13670653
0.24143288 -0.03721252 0.2016972 0.025747843 -0.08066122 -0.0700584 -0.085960284 0.02122556
-0.123198204 -0.16364445 -0.064458765 0.008614557 0.045851093 -0.082635775 -0.04433412 0.18802793
0.074001744 -0.1933465 0.03442731 0.020119615 0.05318079 -0.08129646 -0.040959597 -0.11533076
-0.20265839 -0.17791554 -0.022146031 0.0606624 0.05077508 0.04824838 0.20196456 0.047895193
0.04488894 -0.1254377 -0.14735717 -0.03276305 -0.18205898 0.23112041 0.010816923 -0.036606066
00000000: d7d5 07be 10ea 23be af63 6bbd 915e d7bd
00000010: 3e3a 2cbe 8eb3 923e 5b76 533d 531f 823d
00000020: 956f 2b3e 93b7 393e fc9c 50be c322 46be
00000030: 9db9 f9bd 0590 813e 419a 333d b18b 333e
00000040: 859d d5bd 9f04 7cbd d4f3 11be 7939 433e
00000050: 73b0 0f3d be83 d73d b2ce 27bd ccfc 0bbe
00000060: 2e3a 773e 286c 18bd b689 4e3e 24ed d23c
00000070: b631 a5bd c77a 8fbd f20b b0bd 3ae1 ad3c
00000080: 574f fcbd 6992 27be f502 84bd 1224 0d3c
00000090: 5bce 3b3d f23c a9bd b297 35bd 658a 403e
000000a0: 3a8e 973d a0fc 45be a703 0d3d e4d1 a43c
000000b0: 1ad4 593d c27e a6bd 40c5 27bd 8932 ecbd
000000c0: ae85 4fbe 7e2f 36be 986b b5bc 2379 783d
000000d0: 88f9 4f3d 18a0 453d cccf 4e3e c02d 443d
000000e0: 77dd 373d be72 00be cce4 16be 8c32 06bd
000000f0: ab6d 3abe d4aa 6c3e 7739 313c 3ef0 15bd

model.10.weight f4 [128, 1024]
-0.043041054 -0.030628724 0.0044363835 -0.033647157 -0.035928145 -0.024180373 -0.018814422 -0.043140046
0.0046228752 0.018601708 -0.0070788236 0.05859177 0.037805256 -0.0060441387 0.0010202295 0.019780941
-0.0045250175 0.030796455 0.025208326 0.0010639996 0.032935333 -0.025655441 -0.022241874 0.03953365
-0.0062921555 -0.034124237 -0.05499471 -0.006629662 0.00976984 -0.022269594 -0.04384475 -0.043465193
-0.028777983 -0.0047322563 -0.003583039 -0.0046987417 -0.031558428 0.03052884 -0.014211371 0.0076956614
0.040413804 0.036217134 0.054974418 0.039798733 -0.021035552 -0.021602312 -0.027335383 -0.011781938
0.038935006 -0.0064315377 0.0051435377 0.038329773 -0.04151069 -0.022493215 -0.03294789 0.009621802
-0.043123163 -0.006275702 0.03592882 0.02380219 0.012947642 -0.069015205 -0.07915613 -0.026274284
-0.024242744 0.0060730404 -0.0015168913 -0.008372314 0.026933458 0.0140463775 0.06696794 0.07030928
0.009237596 -0.0065963073 0.06475559 0.054806095 -0.05765676 -0.049180277 -0.036276493 -0.06505752
-0.014141396 0.017400762 0.0050017573 -0.009224029 0.023701398 0.03174126 0.057481863 0.0014203709
-0.0027699317 0.024248386 0.028685633 -0.0019255767 -0.004340139 0.01672884 -0.0073633166 -0.033826
-0.02503139 -0.046884336 -0.0025684424 0.029337859 -0.022018988 -0.01935311 0.010944406 0.06174933
-0.06616892 -0.060208518 0.0056480565 0.036604576 -0.021506708 -0.0032061078 0.026846362 -0.02817854
-0.02346601 0.010936012 -0.039980337 -0.030510003 -0.027334005 -0.024529444 0.01874807 -0.057647187
-0.019804524 -0.013748747 0.016519297 0.026658768 -0.02895988 0.018993098 -0.007339761 0.0036681728
-0.043145638 -0.01655093 -0.0045431405 -0.00852305 -0.026526127 -0.0030173226 -0.0005721721 -0.024861023
-0.028426843 -0.036075037 -0.020095773 0.019092299 -0.008309592 -0.020774638 -0.0011858022 -0.0030767296
0.06699524 0.0082961945 0.0075221434 0.00953935 0.089242674 -0.039981123 0.027703939 0.05355851
0.015111139 0.028115068 0.015952773 0.029554794 0.023110867 0.0016121083 0.020927586 0.050948925
0.00065216224 -0.038737856 0.028961856 -0.03353983 0.027526444 0.019823471 0.026105186 -0.009494101
-0.0015518046 0.006475386 -0.015571512 -0.0010099931 -0.010695173 -0.02407307 -0.0077859648 -0.014605926
0.020320194 -0.0038384302 0.0130653605 0.02563278 -0.026563443 -0.005648105 -0.0049592364 0.020861452
0.03780668 -0.0075368993 -0.064525984 -0.011605878 0.015432182 0.026865995 -0.023684528 0.011109012
0.030742375 0.03476299 0.012404596 0.018627781 0.019177645 -0.010950984 0.016501535 -0.0030739177
0.011790471 0.015808577 0.013193047 -0.031694565 -0.037065804 -0.02553041 -0.01603321 0.0066393306
-0.022909014 -0.016343096 -0.019408245 -0.0027094125 -0.047570117 0.041786816 -0.0072428724 -0.025658222
-0.006527727 0.049412563 0.030029543 -0.007472038 -0.05794349 -0.007828065 0.0032669725 -0.020455666
-0.011398704 -0.0017251563 0.034278814 0.004605508 -0.00015589749 0.02494697 -0.029173706 -0.020584388
-0.021616463 0.040721163 0.035175707 0.035163507 -0.03258921 0.020071164 0.035552166 -0.048455797
-0.009782081 -0.019875908 0.0030713868 -0.03261923 0.033655733 -0.0006313159 -0.009457396 0.042879883
0.061557908 0.010134756 0.008201567 0.019381506 -0.03015956 -0.07934906 -0.036955416 0.008307535
00000000: d14b 30bd 17e9 fabc 155f 913b 9ad1 09bd
00000010: 6429 13bd eb15 c6bc b420 9abc 9eb3 30bd
00000020: 7d7b 973b 9c62 983c 7af5 e7bb ecfd 6f3d
00000030: afd9 1a3d e90d c6bb 39b9 853a a40b a23c
00000040: 9946 94bb d948 fc3c b181 ce3c e775 8b3a
00000050: 33e7 063d 5c2b d2bc 9734 b6bc 09ee 213d
00000060: 6d2e cebb dbc5 0bbd 2242 61bd a33d d9bb
00000070: ae11 203c b96e b6bc 8d96 33bd 8f08 32bd
00000080: cebf ebbc 0b11 9bbb 6bd1 6abb e7f7 99bb
00000090: 6943 01bd 9e17 fa3c cfd6 68bc e32b fc3b
000000a0: f288 253d 6b58 143d db2c 613d ff03 233d
000000b0: c052 acbc 55f7 b0bc 74ee dfbc 0809 41bc
000000c0: 507a 1f3d a6bf d2bb 1f8b a83b aeff 1c3d
000000d0: 1d07 2abd b143 b8bc 5ef4 06bd c3a4 1d3c
000000e0: eaa1 30bd 67a4 cdbb 192a 133d cffc c23c
000000f0: 5922 543c d857 8dbd 9c1c a2bd 2b3d d7bc
00000100: b898 c6bc 5b00 c73b 6dd2 c6ba 082c 09bc
00000110: 8ea3 dc3c c722 663c 7d26 893d 50fe 8f3d
00000120: 4959 173c d625 d8bb 949e 843d 5b7c 603d
00000130: 7f29 6cbd 4271 49bd a996 14bd e13c 85bd
00000140: 50b1 67bc 0b8c 8e3c c8e5 a33b 6220 17bc
00000150: 6f29 c23c 2003 023d 1a72 6b3d bd2b ba3a
00000160: be87 35bb 8da4 c63c 22fe ea3c a263 fcba
00000170: ba37 8ebb ec0a 893c fa47 f1bb 228d 0abd
00000180: a10e cdbc ca09 40bd 5053 28bb f355 f03c
00000190: 2a61 b4bc 6a8a 9ebc 2a50 333c deec 7c3d
000001a0: 9283 87bd 359d 76bd 5513 b93b aeee 153d
000001b0: d62e b0bc 901d 52bb e7ec db3c aed6 e6bc
000001c0: ca3b c0bc f52c 333c 6cc2 23bd 1df0 f9bc
000001d0: 90eb dfbc f9f1 c8bc 8d95 993c 751f 6cbd
000001e0: 193d a2bc 6d42 61bc 7a53 873c 7d63 da3c
000001f0: 453d edbc 6a97 9b3c 6182 f0bb ba65 703b
00000200: 7bb9 30bd d195 87bc a0de 94bb 43a4 0bbc
00000210: 524d d9bc 46be 45bb d2fd 15ba 58a9 cbbc
00000220: 69df e8bc 6bc3 13bd e49f a4bc 7467 9c3c
00000230: f424 08bc 932f aabc eb6c 9bba f5a2 49bb
00000240: cd34 893d c3ec 073c 507c f63b ef4a 1c3c
00000250: ddc4 b63d 3fc3 23bd 5ff3 e23c 2b60 5b3d
00000260: b694 773c 9251 e63c 64af 823c e51c f23c
00000270: 0053 bd3c 614d d33a 5470 ab3c d2af 503d
00000280: def5 2a3a 96ab 1ebd 6a41 ed3c 1061 09bd
00000290: 237f e13c d564 a23c 8bda d53c 258d 1bbc
000002a0: ec65 cbba 7a2f d43b a81f 7fbc bf61 84ba
000002b0: cf3a 2fbc e334 c5bc 6821 ffbb b24d 6fbc
000002c0: 8976 a63c 2c8e 7bbb 1810 563c d6fb d13c
000002d0: 949b d9bc bd13 b9bb 1781 a2bb a3e5 aa3c
000002e0: 2ddb 1a3d 18f8 f6bb 3326 84bd 9526 3ebc
000002f0: 43d7 7c3c 1316 dc3c 0e06 c2bc 9302 363c
00000300: 6fd7 fb3c a363 0e3d a63c 4b3c 4a99 983c
00000310: 701a 9d3c c26b 33bc 3a2e 873c c873 49bb
00000320: d22c 413c fd80 813c a627 583c 29d2 01bd
00000330: 50d2 17bd 2725 d1bc 1458 83bc be8e d93b
00000340: afab bbbc f5e1 85bc 0afe 9ebc 6690 31bb
00000350: e2d8 42bd a728 2b3d 9e55 edbb 3131 d2bc
00000360: 8be6 d5bb d464 4a3d 8400 f63c ffd7 f4bb
00000370: 2756 6dbd 4941 00bc b41a 563b a492 a7bc
00000380: a1c1 3abc a41e e2ba f167 0c3d cde9 963b
00000390: 6a78 23b9 975d cc3c b2fd eebc 97a0 a8bc
000003a0: 0215 b1bc 3ccb 263d 6714 103d 9c07 103d
000003b0: 437c 05bd 486c a43c 269f 113d 9679 46bd
000003c0: 0545 20bc cdd2 a2bc 5249 493b be9b 05bd
000003d0: 98da 093d e57e 25ba 32f3 1abc d1a2 2f3d
000003e0: 2524 7c3d 3f0c 263c de5f 063c f7c5 9e3c
000003f0: 2e11 f7bc c381 a2bd 905e 17bd 541c 083c

model.10.bias f4 [128]
0.048882253 -0.048054848 0.032306902 0.005644676 -0.13890676 0.11539049 0.0487089 -0.025581721
0.046006355 -0.068346694 0.025906153 0.12009666 -0.0067076017 -0.04979542 -0.054732505 0.018859003
0.013409602 0.11089694 0.0066640205 -0.034330294 -0.006107053 1.540065e-05 0.033594485 -0.04452279
0.01542031 0.0063768416 0.113821484 -0.022876848 -0.005570402 0.09855806 0.1522494 0.08290278
0.020934142 -0.039948266 0.016170299 0.0015774125 0.07332247 -0.0055012284 0.097619735 0.029557306
0.13452306 0.034627136 0.019044043 0.10340587 0.105206296 0.14074762 -0.029461538 -0.013641113
0.09033884 0.11569847 0.081693925 -0.0057018497 -0.036721956 -0.041882403 0.05290231 0.027337166
0.03439649 0.097750984 0.055618327 -0.09455047 -0.028378168 0.10060805 0.08452632 -0.07143401
0.023040501 0.07322427 -0.046872504 0.030563978 0.037422944 0.08825773 -0.012271569 0.10105497
0.016501207 0.031139016 -0.09570011 -0.016803732 -0.009903168 -0.031916577 0.028403718 0.108325504
0.15118578 -0.007799706 0.015851956 0.0048984597 -0.0022072946 0.04746806 0.07475334 0.018974407
-0.049153045 0.0016065538 -0.0011210374 0.14253128 0.1530823 0.06628095 -0.002958196 -0.06875442
0.03554105 -0.011298818 0.083060235 0.023624994 0.109254174 0.07313436 0.1536837 0.021209158
-0.025084427 0.021982124 0.0022256258 0.036062084 0.051462058 0.0073408787 -0.029653113 0.032187227
-0.010557788 0.024663402 0.15978187 -0.0044874754 0.020853477 0.031215053 0.12864816 -0.013173123
-0.0040878234 0.028700761 0.047484554 0.08352036 0.00025107595 0.04993308 0.036364116 0.006523847
00000000: c238 483d 29d5 44bd 3e54 043d f9f6 b83b
00000010: 933d 0ebe d951 ec3d fc82 473d c290 d1bc
00000020: 2971 3c3d 5af9 8bbd 2439 d43c 3df5 f53d
00000030: 71cb dbbb 48f6 4bbd 312f 60bd 327e 9a3c
00000040: f3b3 5b3c ef1d e33d db5d da3b ec9d 0cbd
00000050: ac1d c8bb a530 8137 5f9a 093d 875d 36bd
00000060: 78a5 7c3c d3f4 d03b 3d1b e93d 3a68 bbbc
00000070: eb87 b6bb cfd8 c93d 44e7 1b3e efc8 a93d
00000080: 147e ab3c cba0 23bd 9377 843c 2ec1 ce3a
00000090: 172a 963d a643 b4bb dbec c73d 2a22 f23c
000000a0: 6ac0 093e 2fd5 0d3d 4102 9c3c 75c6 d33d
000000b0: 6676 d73d 2520 103e 5359 f1bc fa7e 5fbc
000000c0: 9203 b93d 52f3 ec3d 254f a73d 95d6 babb
000000d0: c369 16bd e28c 2bbd 18b0 583d 31f2 df3c
000000e0: 55e3 0c3d ab31 c83d 0bd0 633d ada3 c1bd
000000f0: 5579 e8bc 980b ce3d 231c ad3d ff4b 92bd
00000100: 6fbf bc3c 9bf6 953d 62fd 3fbd 4f61 fa3c
00000110: cd48 193d 78c0 b43d b10e 49bc e8f5 ce3d
00000120: 8a2d 873c 4017 ff3c 6bfe c3bd fba7 89bc
00000130: e640 22bc f5ba 02bd eaae e83c c3d9 dd3d
00000140: 72d0 1a3e ad94 ffbb f6db 813c 4283 a03b
00000150: 42a8 10bb de6d 423d 4718 993d 3770 9b3c
00000160: b454 49bd 0093 d23a c6ef 92ba b8f3 113e
00000170: 9bc1 1c3e 4fbe 873d 4bde 41bb 1ecf 8cbd
00000180: 7e93 113d ad1e 39bc 7c1b aa3d 3489 c13c
00000190: a7c0 df3d 78c7 953d 435f 1d3e d4be ad3c
000001a0: db7d cdbc db13 b43c cedb 113b d6b5 133d
000001b0: e1c9 523d c18b f03b 16eb f2bc c1d6 033d
000001c0: 93fa 2cbc e70a ca3c dc9d 233e ac0b 93bb
000001d0: e9d4 aa3c b6b6 ff3c 58bc 033e 15d4 57bc
000001e0: 26f3 85bb dc1d eb3c 2a7f 423d b90c ab3d
000001f0: d8a2 8339 a186 4c3d 8af2 143d ffc5 d53b

model.13.weight f4 [10, 128]
0.034860145 -0.11920099 0.11504378 0.05463539 0.09225662 0.10737403 -0.14646679 -0.07679079
0.1488383 0.083249085 0.10040619 0.06147675 -0.06556981 0.2037074 0.07970769 -0.022492997
0.048578195 -0.17554973 -0.18950453 -0.04388787 -0.009287305 0.21504387 -0.15848552 -0.07286014
0.031949185 -0.0726471 -0.21080147 -0.114346534 -0.053694833 -0.17442286 -0.2297554 -0.16811235
0.18555905 0.19329326 -0.06470877 0.013495334 0.14508536 -0.21698579 -0.03248854 0.17881061
0.0006425253 -0.09342128 -0.08629987 -0.24947955 -0.022176147 0.051544085 -0.07683992 0.21007687
0.2771652 0.1799599 -0.18147913 -0.04421649 -0.04984518 -0.00014509617 -0.09481114 0.05523963
-0.12383045 0.13732213 0.117711574 0.20890778 0.09849941 -0.1405751 -0.030290741 0.28730872
-0.11703274 0.061006524 -0.09728343 -0.05429297 -0.1083967 -0.029030196 0.0832458 0.058094166
-0.03096303 -0.24544612 0.12638247 0.26525953 -0.030374995 -0.2607668 -0.07574343 -0.22920394
-0.062477347 0.19622833 0.16498677 -0.08681753 -0.15254901 0.11886889 -0.19010773 0.20177746
-0.070092514 0.12238074 0.15800065 -0.2688166 -0.27811864 -0.25488 0.1568045 -0.25433406
0.13738573 0.31279466 0.18810283 -0.048862394 0.15250354 0.21455476 0.035600185 -0.13124381
-0.04922268 0.13203497 0.008514638 0.17383952 -0.028346796 0.03474873 0.005812992 0.17068532
-0.05812869 0.261292 -0.13481362 0.2649186 -0.16856605 0.10656233 -0.03878731 -0.14116435
0.19591992 0.18277012 0.1408935 -0.17757984 0.12463874 0.19268094 0.20673107 0.24178363
0.041186836 0.25397906 0.07864067 -0.25226167 0.09465368 0.019384682 0.10163157 0.013036497
-0.3540533 0.18819317 0.15150303 -0.07810526 -0.19360842 -0.105969466 0.09535461 -0.12995954
-0.018357119 -0.1420699 -0.086564824 0.26130745 0.0676625 0.12247945 0.1674606 0.07546926
-0.17269266 -0.33336937 -0.25314736 0.07341282 0.13842489 0.040792312 -0.17311093 -0.16109455
-0.025546143 0.27304435 -0.067077324 -0.044689298 -0.4207317 0.19624905 -0.08763372 0.2237319
-0.036325846 -0.04931089 0.016228246 -0.17124888 -0.07171682 -0.37013677 0.051255737 0.18948996
-0.092091516 -0.23999795 -0.15662539 -0.10364781 -0.108108915 0.06657425 -0.0039390246 -0.07940833
-0.049963385 -0.3096906 0.1462392 0.22388548 0.1514056 -0.051846076 0.055185948 -0.05133078
-0.035191335 0.2397816 0.3184284 0.3381622 -0.26056987 -0.11243827 0.03294409 -0.23568583
-0.070743054 -0.06967865 0.15794238 -0.11794454 -0.2084376 0.19867732 -0.113345824 -0.017120373
-0.080226175 0.22260244 0.27016884 -0.1371968 -0.07926586 -0.071646795 -0.2529136 0.23512416
0.24067532 -0.14920181 -0.1565547 -0.10566698 -0.06398863 0.07266191 -0.1523876 0.27086848
-0.25439924 -0.10949075 -0.11889544 -0.030054493 -0.29755664 -0.19830798 -0.1949625 0.17671543
0.005092065 -0.09984703 0.10360873 -0.31333855 -0.11269768 -0.013896761 0.14950427 0.17065316
0.042969007 -0.08842854 -0.08584982 -0.15354781 -0.12914626 0.034387775 -0.1510865 0.21435441
0.21430938 0.24817334 0.147218 0.0749091 -0.09122256 0.20933723 -0.16497877 -0.27037308
00000000: 83c9 0e3d a61f f4bd 139c eb3d 5cc9 5f3d
00000010: 0af1 bc3d eae6 db3d 64fb 15be 7d44 9dbd
00000020: 1169 183e 7f7e aa3d c3a1 cd3d 0bcf 7b3d
00000030: 7749 86bd ac98 503e c93d a33d 3c43 b8bc
00000040: eef9 463d 4fc3 33be 7a0d 42be c4c3 33bd
00000050: c829 18bc 7634 5c3e 074a 22be b237 95bd
00000060: 26dd 023d 01c8 94bd 57dc 57be 842e eabd
00000070: 1def 5bbd e89b 32be 0045 6bbe a525 2cbe
00000080: 3103 3e3e abee 453e 0886 84bd 891b 5d3c
00000090: 4291 143e 8631 5ebe b412 05bd 211a 373e
000000a0: 256f 283a a853 bfbd fcbd b0bd 9177 7fbe
000000b0: c0aa b5bc e41f 533d 3f5e 9dbd 641e 573e
000000c0: 99e8 8d3e 6847 383e aad5 39be 5a1c 35bd
000000d0: 762a 4cbd f524 18b9 582c c2bd f342 623d
000000e0: d29a fdbd 2c9e 0c3e c412 f13d eceb 553e
000000f0: 0fba c93d ebf2 0fbe 4a24 f8bc 211a 933e
00000100: dcae efbd fae1 793d 893c c7bd 4e62 5ebd
00000110: 17ff ddbd bcd0 edbc c67c aa3d 26f4 6d3d
00000120: 2ea6 fdbc 3a56 7bbe 686a 013e 19d0 873e
00000130: fbd4 f8bc 3a83 85be 5f1f 9bbd 70b4 6abe
00000140: 3fe8 7fbd 14f0 483e 4bf2 283e 64cd b1bd
00000150: cf35 1cbe 8871 f33d 9aab 42be c09e 4e3e
00000160: aa8c 8fbd c1a2 fa3d ecca 213e 54a2 89be
00000170: 9165 8ebe a27f 82be 5c91 203e 1338 82be
00000180: d8ae 0c3e 9f26 a03e 079e 403e ef23 48bd
00000190: e329 1c3e 3eb4 5b3e 80d1 113d c764 06be
000001a0: b99d 49bd 2d34 073e fb80 0b3c fd02 323e
000001b0: 8a37 e8bc af54 0e3d e97a be3b 22c8 2e3e
000001c0: 5918 6ebd 11c8 853e 950c 0abe 69a3 873e
000001d0: 949c 2cbe 5a3d da3d 71df 1ebd 638d 10be
000001e0: 3b9f 483e 1728 3b3e 6346 103e 7dd7 35be
000001f0: 9942 ff3d 274e 453e 4fb1 533e 2196 773e
00000200: 87b3 283d 8b09 823e 5c0e a13d 7128 81be
00000210: cad9 c13d a0cc 9e3c 3624 d03d 0897 553c
00000220: 7946 b5be b6b5 403e 9c23 1b3e a7f5 9fbd
00000230: 4941 46be 8506 d9bd 4749 c33d 1d14 05be
00000240: ab61 96bc c67a 11be e648 b1bd 17ca 853e
00000250: a392 8a3d 82d6 fa3d cb7a 2b3e a18f 9a3d
00000260: 58d6 30be 64af aabe 889c 81be 7659 963d
00000270: 41bf 0d3e d715 273d fe43 31be f8f5 24be
00000280: 2546 d1bc 78cc 8b3e d65f 89bd 200c 37bd
00000290: 256a d7be 83f5 483e 4f79 b3bd fa19 653e
000002a0: 69ca 14bd 37fa 49bd 19f1 843c de5b 2fbe
000002b0: 45e0 92bd 9182 bdbe 89f1 513d a809 423e
000002c0: 7a9a bcbd 06c2 75be 6862 20be 4e45 d4bd
000002d0: 3568 ddbd 1558 883d ef12 81bb d6a0 a2bd
000002e0: 68a6 4cbd c48f 9ebe bbbf 153e 3c42 653e
000002f0: 120a 1b3e 8d5c 54bd a90a 623d 3940 52bd
00000300: ca24 10bd 4f89 753e 0c09 a33e 9923 ad3e
00000310: 6a69 85be 0946 e6bd 62f0 063d a057 71be
00000320: bce1 90bd aeb3 8ebd a6bb 213e e88c f1bd
00000330: ab70 55be 1172 4b3e db21 e8bd 0640 8cbc
00000340: 9f4d a4bd e5f1 633e 9253 8a3e 517d 0cbe
00000350: 2456 a2bd 8ebb 92bd e47d 81be 63c4 703e
00000360: 9773 763e 5cc8 18be e04f 20be ee67 d8bd
00000370: 790c 83bd c4cf 943d 7f0b 1cbe 46af 8a3e
00000380: 9e40 82be b03c e0bd 747f f3bd d734 f6bc
00000390: 5859 98be 3f11 4bbe 40a4 47be e4f4 343e
000003a0: 56db a63b 9a7c ccbd d030 d43d e96d a0be
000003b0: 0bce e6bd 3eaf 63bc a617 193e b4bf 2e3e
000003c0: 4500 303d 061a b5bd 08d2 afbd a33b 1dbe
000003d0: eb3e 04be 32da 0c3d 6bb6 1abe b97f 5b3e
000003e0: eb73 5b3e 2721 7e3e 51c0 163e f169 993d
000003f0: e5d2 babd 805c 563e 32f0 28be 576e 8abe

model.13.bias f4 [10]
-0.1846484 -0.28473386 -0.0010473735 0.39505276 0.40776318 -0.062140472 0.05496411 -0.2985098
0.09574266 -0.15451601
00000000: 7814 3dbe a3c8 91be 0648 89ba 5b44 ca3e
00000010: 56c6 d03e 0287 7ebd 0c22 613d 47d6 98be
00000020: ba14 c43d 7239 1ebe
