cnn_in_depth/cifar_cnn_image_classification/cifar10_network.pt (torch, 643150 bytes, 10 tensors)

weight f4 [16, 3, 3, 3]
0	0xbd0fc6f8	-0.03510186
1	0xbdad7895	-0.08470265
2	0x3ce15233	0.027505016
3	0xbe2ecb1e	-0.1706967
4	0x3e24c726	0.16091594
5	0xbdee7f71	-0.11645401
6	0xbd67521f	-0.0564748
7	0xbe396161	-0.18103553
8	0x3e106f37	0.14104925
9	0xbd9a1523	-0.07523563
10	0xbe09468f	-0.13405822
11	0x3df74699	0.12074012
12	0x3d4405bf	0.047857042
13	0xbd3ebe9a	-0.04656849
14	0x3d926963	0.07149007
15	0xbdd58c21	-0.10427118
16	0xbd30f35c	-0.043200836
17	0x3c29afa4	0.010356817
18	0x3e0cfbbb	0.13767903
19	0xbcc213f9	-0.023691164
20	0xbe01fd1b	-0.12694208
21	0x3e26906c	0.1626603
22	0xbd991aa0	-0.074757814
23	0x3ddcc52b	0.10779794
24	0x3da4c09e	0.08044551
25	0x3e2cabc2	0.16862395
26	0x3e427f23	0.18993811
27	0xbe42779c	-0.1899094
28	0x3dec32e1	0.11533142
29	0xbe4489f4	-0.1919325
30	0x3c4a1c35	0.012335827
31	0x3e253a7c	0.16135591
32	0x3d6a7948	0.05724457
33	0x3e1333c4	0.14375216
34	0xbe312724	-0.17300087
35	0xbe07716c	-0.13226861
36	0xbdeccfa8	-0.11563045
37	0xbe372553	-0.17885332
38	0xbd9a126b	-0.07523044
39	0x3d838531	0.064218886
40	0x3df54c52	0.119774476
41	0x3db3f884	0.08787635
42	0xbd19f020	-0.037582517
43	0xbbb48cbd	-0.0055099414
44	0xbae2dd97	-0.001730847
45	0xbcad4c20	-0.021154463
46	0xbda4283e	-0.08015488
47	0xbe1a6820	-0.15078783
48	0xbdf8ea30	-0.12154043
49	0x3e318092	0.17334202
50	0x3e3dc9b9	0.18533982
51	0x3e09d290	0.1345923
52	0x3d6d69cf	0.057962235
53	0xbe077ec9	-0.13231958
54	0xbd1394e9	-0.036030684
55	0xbe34fd90	-0.17674851
56	0x3c19367c	0.009351369
57	0xbe112ee5	-0.14178045
58	0x3c9440a6	0.018097233
59	0xbd8a683a	-0.06758161
60	0x3d78b076	0.06071516
61	0x3bc86b94	0.00611634
62	0xbe15f2ee	-0.14643452
63	0xbe26d8bc	-0.16293615
64	0x3d9e32a2	0.07724501
65	0x3e28c4c0	0.16481304
66	0x3e1dbbb7	0.15403639
67	0xbe1f6ece	-0.15569612
68	0xbe0da15d	-0.13831086
69	0xbe3b35c6	-0.18282232
70	0xbe22eaf1	-0.15909936
71	0xbdca7319	-0.098852344
72	0x3e1e9521	0.15486576
73	0x3e10a621	0.14125873
74	0x3e3e1bd5	0.18565305
75	0x3e448075	0.19189627
76	0x3dc19467	0.094521336
77	0xbe3b1b92	-0.18272236
78	0x3d9c951b	0.07645627
79	0x3caae5d3	0.020861542
80	0xbe2245fd	-0.15847011
81	0x3d8dc2e7	0.0692194
82	0xbe42a21e	-0.19007155
83	0xbcfbe895	-0.030750552
84	0xbd36e81e	-0.044654958
85	0xbe37ff8e	-0.1796858
86	0xbd8e918f	-0.06961357
87	0x3e3b0f7a	0.18267623
88	0xbe2922c6	-0.16517171
89	0xbd087347	-0.033313062
90	0x3deeb859	0.11656255
91	0x3ca7646e	0.02043363
92	0xbe2b3c6f	-0.16722272
93	0x3e330124	0.17480904
94	0xbe345d6b	-0.17613761
95	0xbe0de75f	-0.13857792
96	0xbe01dff0	-0.12683082
97	0x3dfcdb6e	0.123465404
98	0x3e3de4f1	0.18544365
99	0x3ba5ea1f	0.00506331
100	0x3d2e4b4a	0.04255227
101	0xbe3b7531	-0.18306424
102	0x3cefca6e	0.02927133
103	0x3dc9dec1	0.0985694
104	0x3d9e680c	0.07734689
105	0xbe20cba8	-0.15702689
106	0x3e424e27	0.18975125
107	0xbe3cfbac	-0.1845538
108	0x3d8f2c72	0.06990899
109	0xbe2f6185	-0.17127044
110	0xbd850de3	-0.06496789
111	0x3d2f0943	0.042733442
112	0x3c953348	0.01821293
113	0x3e3e0887	0.1855794
114	0x3c7c8d39	0.0154145295
115	0x3e03738a	0.12837043
116	0xbdad3c05	-0.084587134
117	0xbe295e93	-0.16539983
118	0x3d8a1760	0.0674274
119	0x3e140d85	0.14458282
120	0xbdda8238	-0.106693685
121	0x3d9d4ca1	0.076806314
122	0x3dfcb329	0.123388596
123	0x3c842973	0.016133046
124	0x3e1fe2c7	0.15613852
125	0xbe3dd599	-0.18538512
126	0xbe1a9f1c	-0.15099758
127	0xbdb90077	-0.09033292
128	0xbd4ae6ee	-0.049536638
129	0xbe28f81f	-0.165009
130	0x3c455f94	0.012046713
131	0x3dbe37f9	0.0928802
132	0x3da1b96a	0.07896693
133	0xbe0d624a	-0.13807026
134	0xbc8d09c1	-0.017216565
135	0xbdceb94f	-0.100939386
136	0xbe40daf3	-0.18833522
137	0x3cfcc2a1	0.030854525
138	0xbe079bc4	-0.13243014
139	0x3da25d6b	0.07927974
140	0xba5b6318	-0.0008368953
141	0x3e15869b	0.14602129
142	0xbdee4d27	-0.116358094
143	0xbe1362db	-0.14393179
144	0x3e0df604	0.13863379
145	0xbdba35b2	-0.09092273
146	0x3e1a52ed	0.15070696
147	0xbdf8770d	-0.12132082
148	0xbd074765	-0.03302707
149	0x3e16aa4b	0.14713399
150	0xbe23cdf0	-0.15996528
151	0x3d41fc0a	0.047359504
152	0x3d5bf120	0.05369675
153	0xbe0dfc03	-0.13865666
154	0x3b81d048	0.0039615966
155	0x3dc04ae8	0.09389287
156	0xbdfffb4a	-0.124991015
157	0xbdb99e8a	-0.09063442
158	0x3d9e1ce9	0.07720358
159	0x3e3c62b9	0.18397035
160	0x3da0c4a5	0.07850007
161	0xbe120684	-0.14260298
162	0x3e02bcf1	0.12767388
163	0x3ddcae38	0.10775417
164	0xbd4b921d	-0.04969989
165	0xbe2b402c	-0.16723698
166	0x3da3bf81	0.07995511
167	0xbc964dcc	-0.018347643
168	0xbdf8d0b3	-0.12149181
169	0x3e0b1197	0.13580929
170	0x3d6e0cf5	0.058117826
171	0xbdac2b20	-0.08406663
172	0x3db9c0f6	0.090700075
173	0xbd18a7e7	-0.0372695
174	0xbda2db48	-0.07951981
175	0xbcf0e017	-0.02940373
176	0xbd835b6b	-0.06413921
177	0xbd953419	-0.072853275
178	0xbca94bdb	-0.020666054
179	0xbe11ddef	-0.14244817
180	0x3d42d351	0.04756481
181	0xbded39cb	-0.11583289
182	0x3dec3bb9	0.11534829
183	0x3d827219	0.06369419
184	0x3e20dd1f	0.15709351
185	0x3c81e247	0.015854968
186	0x3e42d2e9	0.19025768
187	0x3e3132db	0.17304556
188	0xbd86f289	-0.06589229
189	0xbe3aa4dd	-0.18226953
190	0x3dba7dc5	0.0910602
191	0x3c992a1e	0.01869684
192	0x3e09976e	0.13436672
193	0xbd9fc2e7	-0.078008465
194	0xbd5064f8	-0.05087754
195	0x3bb7e490	0.0056119636
196	0x3e373070	0.17889571
197	0x3e3e994a	0.18613163
198	0x3d51ef40	0.051253557
199	0xbe05e2f8	-0.13074863
200	0xbddd80d1	-0.108155854
201	0x3d0fe825	0.0351335
202	0x3d9ee313	0.07758155
203	0x3d0d8645	0.034551878
204	0xbde3182a	-0.11088593
205	0x3c59ba43	0.013289037
206	0xbdc3d2aa	-0.09561665
207	0xbdef6ddd	-0.11690877
208	0x3db79ce6	0.08965473
209	0x3dd0cda3	0.10195472
210	0xbd02a09c	-0.03189145
211	0xbb963ee2	-0.004585133
212	0xbe0f1eae	-0.13976547
213	0xbdcb4fac	-0.099273056
214	0xbe2035fa	-0.1564559
215	0xbcdeb24f	-0.027184634
216	0x3b487970	0.003058996
217	0x3bf91f44	0.007602604
218	0x3e2bc548	0.16774476
219	0x3e41b178	0.18915355
220	0x3d33ef4a	0.043929376
221	0xbd5d7edf	-0.05407607
222	0x3d98393b	0.07432791
223	0xbd35ff60	-0.044432998
224	0xb7a0e366	-1.9179377e-05
225	0xbdc91017	-0.09817522
226	0xbdadd40e	-0.08487712
227	0xbdacca51	-0.08437026
228	0x3b0928e7	0.002092892
229	0xbe09c758	-0.1345495
230	0x3c931103	0.017952448
231	0xbe2f3cfd	-0.17113109
232	0xbda66afd	-0.08125875
233	0xbc38dfe7	-0.011283851
234	0xbdc78dc2	-0.09743835
235	0x3ddd8b55	0.10817591
236	0x3e3aabe7	0.18229638
237	0xbd2f9486	-0.042866252
238	0xbcac5b52	-0.021039639
239	0xbe27726c	-0.16352242
240	0xbd7ca4fe	-0.061680786
241	0x3dc5102b	0.096222244
242	0x3e3e0b9e	0.18559119
243	0x3d4a5bfb	0.049404126
244	0xbd8c6a12	-0.06856169
245	0xbc3e3c13	-0.0116110025
246	0xbe3f52c7	-0.18683921
247	0x3dc93c73	0.09825983
248	0x3e0ac5f9	0.13552083
249	0x3cdaafd4	0.02669517
250	0x3e0bb6b0	0.13643909
251	0x3e33d9c9	0.17563547
252	0x3cf2956e	0.02961227
253	0xbe26b2ad	-0.16279097
254	0xbe273580	-0.16329002
255	0x3e3da94b	0.18521611

bias f4 [16]
0	0x3da01829	0.07817108
1	0x3ceb6f91	0.028739722
2	0xbcfa511e	-0.030556258
3	0xbd0d3449	-0.03447369
4	0xbd890f24	-0.06692341
5	0xbd9b79d5	-0.07591597
6	0xbe3d1a74	-0.18467122
7	0x3e0bd335	0.13654788
8	0xbdde7bfd	-0.10863493
9	0x3e430e0b	0.19048326
10	0x3dd52f96	0.10409467
11	0xbe0a261a	-0.13491097
12	0x3bc5b286	0.0060332445
13	0xbe2a6722	-0.16640905
14	0x3e2cb251	0.16864897
15	0x3de69e06	0.11260609

weight f4 [32, 16, 3, 3]
0	0x3d47f0f0	0.04881376
1	0x3cb6a576	0.022295695
2	0xbd9c24e4	-0.07624224
3	0x3c67e00b	0.014152537
4	0xbd705c43	-0.058681738
5	0x3d1e2d70	0.03861755
6	0x3d584b40	0.05280614
7	0xbcf2297b	-0.029560795
8	0xbcfeb486	-0.03109194
9	0xbcdc187b	-0.026867142
10	0x3d4c9838	0.049949855
11	0xbd83c3b2	-0.0643381
12	0xbd08e508	-0.033421546
13	0xbda0d33a	-0.07852788
14	0xbc1332cb	-0.008984278
15	0xbda39d2b	-0.07988962
16	0x3d0d4ef8	0.03449914
17	0x3d957076	0.07296841
18	0x3c7cd16b	0.0154307885
19	0xbd0a8bc0	-0.033824682
20	0xbd1e49a6	-0.038644455
21	0xbd3e3a96	-0.04644259
22	0xbd7e308b	-0.062058013
23	0x3d1288a0	0.035774827
24	0xbd7109d6	-0.05884727
25	0x3d5eb44b	0.05437116
26	0x3d9d2cd0	0.07674563
27	0xbc240b6b	-0.010012488
28	0xbd194816	-0.037422262
29	0xbd77b093	-0.06047113
30	0xbd529abe	-0.051417105
31	0x3d065718	0.032797903
32	0x3da4122b	0.08011278
33	0xbc342956	-0.010996183
34	0xbc24e0ab	-0.010063331
35	0xbbec8716	-0.007218252
36	0xbcdd0676	-0.02698062
37	0xbd8cb0c2	-0.068696514
38	0xbc67612b	-0.014122288
39	0xbcb5b910	-0.022182971
40	0xbd85842c	-0.065193504
41	0xbc1ffa60	-0.009764284
42	0x3c81880b	0.01581194
43	0xbcff6306	-0.031175148
44	0xbd8c4830	-0.06849706
45	0xbd9f41cf	-0.07776224
46	0xbd8a6e12	-0.067592755
47	0xbd95153b	-0.0727944
48	0x38a34556	7.7853605e-05
49	0x3a37e6ab	0.0007015268
50	0x3d143623	0.03618444
51	0x3d821e76	0.06353466
52	0xbd261158	-0.040543884
53	0xbceaccd0	-0.028662115
54	0x3d13e656	0.036108337
55	0xbc79f660	-0.015256494
56	0xbd27ac10	-0.040935576
57	0xbc98e43b	-0.018663516
58	0xbd8124fb	-0.063058816
59	0x3cce72ab	0.025201162
60	0xbd8b6e12	-0.068081036
61	0x3cecce56	0.028906982
62	0x3d83054c	0.06397495
63	0xbd6d7e46	-0.05798175
64	0x3c69b3f6	0.014264097
65	0xbd521a9e	-0.051294915
66	0x3c8f6806	0.017505657
67	0x3d946d9e	0.0724747
68	0x3d9e1c37	0.07720225
69	0xbd3f225b	-0.046663623
70	0xbd403796	-0.04692801
71	0x3aba7cab	0.0014227828
72	0x3d8b9c73	0.0681695
73	0xbc7cbf0b	-0.015426408
74	0x3d29cb78	0.04145381
75	0xbc510140	-0.012756646
76	0x3c93411b	0.01797538
77	0x3cefd0cb	0.029274365
78	0x3d422876	0.047401868
79	0xbd01c453	-0.03168137
80	0x3d859fae	0.06524597
81	0x3d9f843e	0.07788895
82	0xbda43c5e	-0.080193266
83	0xbd0c6da3	-0.034284245
84	0x3c3a2220	0.011360675
85	0xbd2608a0	-0.04053557
86	0xbd26c5e0	-0.040716052
87	0x3d4be316	0.049777113
88	0xbd826156	-0.063662216
89	0xbda2afef	-0.07943713
90	0x3d092b13	0.033488344
91	0xbbe1a956	-0.0068866415
92	0x3cf48f00	0.029853344
93	0x3d63bd03	0.055600177
94	0xbcb18f00	-0.021674633
95	0xba9d6000	-0.001200676
96	0xbd9b4868	-0.0758217
97	0xbd7101ae	-0.058839492
98	0xbce8f46b	-0.02843686
99	0xba470cab	-0.0007593135
100	0xbda5aa2e	-0.080891
101	0x3d0ebaf6	0.03484627
102	0x3cdce800	0.026966095
103	0xbd929a3a	-0.07158323
104	0xbb1f9bab	-0.002435426
105	0xbd0d43f6	-0.03448864
106	0x3b84cec0	0.004052967
107	0xbc9dfddb	-0.019286087
108	0x3d191288	0.03737119
109	0xbd451c4e	-0.048122697
110	0xbd9b31d7	-0.075778656
111	0x3d7712b8	0.060320586
112	0x3d8a3a50	0.067494035
113	0xbbbeae80	-0.005819142
114	0xbb0cac2b	-0.0021464925
115	0x3c9bffeb	0.01904293
116	0x3c049c80	0.008093953
117	0x3d1e00de	0.038575046
118	0xbd59931b	-0.053118806
119	0xbc975320	-0.018472254
120	0xbaa4d1ab	-0.0012574693
121	0xbc692480	-0.014229894
122	0x3d83120b	0.06399926
123	0x3d8b15d7	0.06791275
124	0xbb9e3256	-0.004827778
125	0xbd9fec60	-0.07808757
126	0x3d4d4568	0.05011502
127	0xbd0e0620	-0.03467381
128	0x3d8089f7	0.06276315
129	0xbcec474b	-0.028842589
130	0xbca33feb	-0.01992794
131	0xbd65f128	-0.056138188
132	0xbd48d43b	-0.049030524
133	0x3d9dc2e6	0.077031896
134	0x3d508ef6	0.05091759
135	0x3d5b8e0e	0.05360227
136	0xbc94bad0	-0.018155485
137	0xbbff2616	-0.0077865226
138	0x3d8197b2	0.06327762
139	0xbcb36270	-0.021897525
140	0x3d5435c6	0.051809095
141	0x3d5fcc7e	0.05463838
142	0xbca02f8b	-0.01955392
143	0x3c86ac6b	0.016439637
144	0xbd440d20	-0.04786408
145	0xbdaaa0a2	-0.083314195
146	0xbafbaa56	-0.0019200544
147	0x3d80000a	0.062500075
148	0xbd052493	-0.032505583
149	0x3b7107d6	0.0036778352
150	0xbc17a416	-0.00925543
151	0xbd2d6fe6	-0.042343043
152	0x3d7593e8	0.059955508
153	0xbc2273b6	-0.009915283
154	0x3d6c90fb	0.05775545
155	0xbc3fbaab	-0.01170222
156	0x3aec1356	0.0018011134
157	0xbc5124eb	-0.01276515
158	0x3da9e5fa	0.08295818
159	0xbd972a32	-0.07381095
160	0xbd44e976	-0.04807421
161	0x3d5d8390	0.054080546
162	0x3d34b7e0	0.04412067
163	0xbd777ab3	-0.06041975
164	0x3d0f6328	0.035006672
165	0xbd45bcf3	-0.0482759
166	0xbd95b0de	-0.07309125
167	0x3da02c3f	0.07820939
168	0xbcf847f6	-0.030307751
169	0x3d30762e	0.043081455
170	0xbd31ee33	-0.043440055
171	0xbd8ec2a7	-0.06970721
172	0x3d66267e	0.056189053
173	0x3c9bc146	0.019013058
174	0x3b6b9100	0.003594458
175	0x3d4064f3	0.046971273
176	0xbca20850	-0.019779354
177	0x3d3d6c16	0.046245657
178	0xb9503aab	-0.00019858281
179	0xbd157cbe	-0.036495917
180	0xbd956b18	-0.07295817
181	0xbd7db9e0	-0.061944842
182	0xbca02ad6	-0.019551676
183	0xbd807047	-0.06271415
184	0xbcaef620	-0.021357596
185	0xbd89bb84	-0.06725219
186	0xbd03ce88	-0.032179385
187	0x3cc9f076	0.024650794
188	0xbd56de96	-0.05245837
189	0x3d9e3916	0.07725732
190	0xbd8ffa1a	-0.07030125
191	0x3c021756	0.007940134
192	0xbd8f51f8	-0.06998056
193	0x3da6287a	0.08113189
194	0x3d6af9c3	0.057367098
195	0xbd4d97d0	-0.050193608
196	0x3bf43280	0.007452309
197	0x3d9b177a	0.07572837
198	0xbd83c4b3	-0.06434002
199	0xbd93bbef	-0.0721358
200	0xbb18ac80	-0.0023296177
201	0xbd6d7c40	-0.057979822
202	0xbd340030	-0.04394549
203	0xbd255f00	-0.040373802
204	0x3d7b4993	0.061349463
205	0xbd232360	-0.039828658
206	0xbd139a6e	-0.036035948
207	0xbc686320	-0.0141837895
208	0x3cd698e6	0.026195955
209	0xbd415d46	-0.047208093
210	0x3d170906	0.03687384
211	0x3d2968ae	0.041359596
212	0x3c9cc1b0	0.019135326
213	0xbc9c36d6	-0.019069117
214	0x3d947c5e	0.07250284
215	0xbc65d996	-0.014028927
216	0x3d8611a2	0.06546332
217	0xbc475f0b	-0.012168656
218	0xbd0cc450	-0.034366906
219	0xbd9872fb	-0.07443806
220	0xbc04ade0	-0.008098096
221	0xbcd7332b	-0.026269516
222	0xbd8f105f	-0.069855444
223	0x3d32d63e	0.04366135
224	0xbc5e884b	-0.013582299
225	0xbd73ed70	-0.05955261
226	0x3c330b80	0.010928035
227	0x3d42e576	0.047582112
228	0xbaf1d5ab	-0.0018450519
229	0xbcf7df6b	-0.030257901
230	0x3da9015e	0.08252214
231	0xbc181c2b	-0.0092840595
232	0x3c83b26b	0.016076287
233	0x3c40e0eb	0.011772375
234	0xbd172480	-0.036900043
235	0x3b70c680	0.003673941
236	0x3d8c32e3	0.06845643
237	0x3bb269ab	0.0054447255
238	0x3d22a333	0.03970642
239	0xbd69de66	-0.05709686
240	0xbd0d1bc8	-0.034450322
241	0xbd8238cb	-0.06358489
242	0x3cb58790	0.022159368
243	0xbce04e4b	-0.027381083
244	0x3d69e750	0.057105362
245	0x3c1de800	0.009637833
246	0x3d2a9cfb	0.041653614
247	0x3ccb82d6	0.02484266
248	0xbc2f122b	-0.010685484
249	0x3d9e02cb	0.077153765
250	0x3d18919b	0.037248235
251	0x3d9deaea	0.07710822
252	0x3da8e17f	0.08246135
253	0x3c1dcf96	0.009632012
254	0x3c54b876	0.012983432
255	0xbc30614b	-0.010765384

bias f4 [32]
0	0xbd3eb3c8	-0.04655817
1	0xbd3a12ae	-0.04542797
2	0xbcb8f980	-0.022579908
3	0xbd851634	-0.064983755
4	0xbd521576	-0.051289998
5	0xbd7636be	-0.0601108
6	0x3d5b01bb	0.053468447
7	0x3d8da552	0.06916298
8	0x3d9619c2	0.07329132
9	0xbd87e46f	-0.06635367
10	0xbb3b7b56	-0.002860745
11	0x3d9b02ee	0.07568918
12	0xbd45dcde	-0.04830634
13	0xbd5b4dcb	-0.053540986
14	0x3d67b728	0.056571156
15	0xbcad4ad6	-0.021153849
16	0x3cae789b	0.021297744
17	0xbd553e38	-0.05206129
18	0x3d53a0b6	0.051666938
19	0xbd8ab7bb	-0.06773325
20	0xbda73576	-0.08164494
21	0x3d624720	0.05524361
22	0xbd3209db	-0.04346643
23	0xbd24dc28	-0.04024902
24	0x3b67d000	0.003537178
25	0x3b772c56	0.0037715635
26	0xbd1cb31b	-0.038256746
27	0xbceed6cb	-0.029155156
28	0xbda77a73	-0.08177652
29	0xbd9a4fd6	-0.07534759
30	0xbd0627e0	-0.03275287
31	0x3bd59000	0.0065174103

weight f4 [64, 32, 3, 3]
0	0xbd1ecac6	-0.0387676
1	0xbd2f6f21	-0.04283059
2	0xbd00dcb4	-0.03146048
3	0x3c71c51e	0.014756469
4	0xbcdf9502	-0.027292732
5	0x3d1bbada	0.038019992
6	0x3bd60476	0.0065312935
7	0xbce04b3d	-0.027379626
8	0xbcbc4a5d	-0.022984678
9	0x3d06861b	0.032842737
10	0x3d6b6e92	0.057478495
11	0xbcf78d48	-0.030218735
12	0x3d10d2ed	0.035357405
13	0x3c81e3f2	0.015855763
14	0xbd56e58c	-0.052465007
15	0x3cac50db	0.021034649
16	0x3bd98311	0.006637939
17	0x3d16d6f6	0.036826096
18	0xbbb0bbe0	-0.00539349
19	0xbd68e50b	-0.056859057
20	0x3d50ee82	0.05100871
21	0xbc3b2d54	-0.011424381
22	0xbd3016c8	-0.042990476
23	0x3d4fbbf4	0.050716355
24	0xbcb5b57a	-0.022181261
25	0x3d5cc023	0.053894173
26	0xbc18e4f4	-0.00933193
27	0xbbeffbda	-0.007323724
28	0xbb2c9846	-0.002633588
29	0x3d356291	0.044283453
30	0xbcfbe252	-0.030747566
31	0xbbc493d9	-0.00599907
32	0x3be5be41	0.0070112054
33	0x3aa5c75f	0.0012647918
34	0xbcb8042d	-0.022462929
35	0x3d4c06f5	0.049811322
36	0xbc8c7434	-0.017145254
37	0x3d197549	0.037465367
38	0xbd5589b6	-0.052133285
39	0x3d477301	0.04869366
40	0xbd600954	-0.054696396
41	0x3bcb1c64	0.006198453
42	0x3d08618a	0.033296145
43	0x3d0f23f0	0.034946382
44	0xbcc606fa	-0.024173249
45	0xbc36b53a	-0.011151606
46	0xbd0c219d	-0.034211744
47	0xbd4e9ae5	-0.050440688
48	0xbc49aaf5	-0.012308826
49	0xbd6a42c4	-0.05719258
50	0xbcd57489	-0.026056545
51	0x394a120c	0.00019270944
52	0xbcb84301	-0.022492887
53	0x3cb494c5	0.022043595
54	0x3d0bb9a5	0.03411259
55	0xbcf96402	-0.030443195
56	0x3cafe73a	0.021472562
57	0x3d18a030	0.03726214
58	0xbd119c25	-0.0355493
59	0xbd1d9c40	-0.03847909
60	0xbd571735	-0.052512366
61	0x3ceae85a	0.028675247
62	0x3c4aa2db	0.012367929
63	0xbc47ae48	-0.012187548
64	0x3d0bd31a	0.03413687
65	0x3b9dbbfb	0.004813669
66	0xbcaf8771	-0.021426888
67	0x3d4d73ca	0.050159253
68	0xbd04bdeb	-0.032407682
69	0xbd55e8ec	-0.052224085
70	0x3c927eb4	0.017882682
71	0xbc9fd2d9	-0.01950972
72	0xbd36872e	-0.04456251
73	0x3d567971	0.05236191
74	0x3c007864	0.007841203
75	0xbd426f71	-0.04746956
76	0xbc993183	-0.018700367
77	0xbcc47507	-0.023981584
78	0xbb80e19a	-0.003933144
79	0xbc100266	-0.008789634
80	0xbc219298	-0.009861611
81	0xbd6c0400	-0.057621002
82	0x3d52016d	0.05127089
83	0xbcf04f8b	-0.029334804
84	0xbb89b584	-0.0042025466
85	0xbd36e89c	-0.044655427
86	0xbc3a1c80	-0.011359334
87	0x3c1482a1	0.0090643475
88	0xbbacbcde	-0.005271538
89	0x3d0e862a	0.034795918
90	0xbc3c442a	-0.011490861
91	0x3d262d7b	0.040570717
92	0x3b49cfef	0.0030794104
93	0x39c8fcdc	0.00038335368
94	0x3d2c1959	0.04201636
95	0xbd2762f3	-0.04086585
96	0xba21141c	-0.0006144659
97	0xbca77072	-0.02043936
98	0x3bddd638	0.0067699216
99	0x3d25fd88	0.04052499
100	0x3d21106e	0.03932231
101	0x3d1310e6	0.035904787
102	0x3ca403b1	0.020021291
103	0xbd24efee	-0.040267877
104	0xbd348980	-0.044076443
105	0xbd430760	-0.047614455
106	0x3cacbfab	0.021087488
107	0x3d22e87f	0.039772507
108	0x3cba714c	0.022759102
109	0x3d660318	0.056155294
110	0x3cef7554	0.029230751
111	0x3c138958	0.009004913
112	0xbd631cab	-0.05544726
113	0xbba4518c	-0.005014604
114	0x3d45fd3b	0.048337203
115	0x3bdb73ee	0.0066971695
116	0xbca04e9f	-0.01956874
117	0x3c942884	0.018085726
118	0xbabea6de	-0.001454558
119	0x3d27846e	0.04089778
120	0xbd1d7faf	-0.038451847
121	0x3d31f0e5	0.043442626
122	0x3d32756f	0.043569025
123	0x3d3f0033	0.04663105
124	0x3d4e3541	0.050343756
125	0x3d389493	0.045063566
126	0xbc2c9244	-0.010532919
127	0x3d545b6a	0.05184499
128	0x3d521fe9	0.051299963
129	0xba3e2e30	-0.0007254807
130	0x3c8068ac	0.015674911
131	0xbd2ae120	-0.041718602
132	0x3ca8cfd5	0.020606915
133	0xbbb38e02	-0.005479575
134	0x3d6cf1f3	0.05784793
135	0x3c8de759	0.01732223
136	0x3ce58b58	0.028020546
137	0xbd1eebba	-0.038799025
138	0xbc7016fd	-0.014653918
139	0xbca41338	-0.020028695
140	0x3cdbe5e0	0.026843011
141	0x3d2863f3	0.041110944
142	0x3c7a5396	0.0152787175
143	0x3d2a56d3	0.04158671
144	0xbd3f6050	-0.04672271
145	0x3d1bd70c	0.03804688
146	0xbbcfc2bf	-0.006340354
147	0xbd16dedf	-0.03683364
148	0xbca8655b	-0.020556143
149	0x3b1b26c7	0.0023674236
150	0x3d70da79	0.0588021
151	0xbcf6cf12	-0.030128036
152	0xb992ad41	-0.00027976374
153	0xbd24c7d1	-0.040229622
154	0x3ced10d7	0.028938694
155	0xbd502a9c	-0.050821885
156	0xbd052d53	-0.032513928
157	0xbd3bf428	-0.045887142
158	0x3b68d91a	0.0035529793
159	0xbca030d9	-0.019554542
160	0x3d655485	0.055988807
161	0xbd65af6f	-0.05607551
162	0xbc84960a	-0.016184825
163	0x3c637a48	0.013884135
164	0x3bf303ba	0.0074162157
165	0xbd7066ff	-0.058691975
166	0xbd59a94c	-0.05313997
167	0x3d071777	0.032981362
168	0xbd2b6f01	-0.04185391
169	0xbbd3b1d8	-0.0064604096
170	0xb99e4ea6	-0.00030194706
171	0xbd407ab3	-0.046992015
172	0x3c99c5ee	0.018771138
173	0x3d217745	0.039420385
174	0xbc9642f6	-0.018342476
175	0xbb614692	-0.0034374339
176	0x3c5c7c72	0.013457404
177	0xbd6a078a	-0.057136096
178	0xbd169d6c	-0.036771223
179	0x3caf300b	0.021385213
180	0xbd2f4656	-0.042791687
181	0x3d3e6145	0.046479482
182	0x3cede387	0.029039158
183	0xbb2aa710	-0.0026039518
184	0xbaa8909b	-0.0012860479
185	0xbd70e49c	-0.05881177
186	0x3d3d56d6	0.04622539
187	0xbd10d93a	-0.035363413
188	0xbd477c3f	-0.048702475
189	0xbd6e7071	-0.0582127
190	0xbd5daebe	-0.054121725
191	0x3d2d8487	0.042362716
192	0xbcc90f12	-0.024543319
193	0xbd3970b4	-0.045273498
194	0x3c275688	0.010213502
195	0xbc942707	-0.018085016
196	0x3b3cf186	0.0028830483
197	0xbd3906f6	-0.045172654
198	0x3d14f29f	0.036364194
199	0x3d030b68	0.0319933
200	0x3c8120d1	0.015762718
201	0xbd49a70d	-0.049231578
202	0x3c6dad91	0.0145067135
203	0x3d523224	0.05131735
204	0xbd5ee885	-0.054420967
205	0x3c4a283b	0.012338693
206	0x3d106531	0.035252754
207	0xba47322f	-0.00075987255
208	0x3c1d333f	0.009594738
209	0x3c3844e4	0.011246894
210	0x3cc542e6	0.024079751
211	0xbd59860b	-0.05310635
212	0x3d559539	0.052144263
213	0x3d3d47ae	0.046210937
214	0x3d54ad20	0.051922917
215	0xbd500f7f	-0.05079603
216	0xbc082b64	-0.008311126
217	0xbcbc40ca	-0.022980113
218	0xbce69486	-0.028146993
219	0x3d64fa9d	0.055903066
220	0xbccdf907	-0.02514316
221	0xbc67f0bb	-0.014156516
222	0x3cb8bc8a	0.02255084
223	0xbb20693a	-0.0024476782
224	0x3d14c8c0	0.036324263
225	0xbd2ab121	-0.04167283
226	0x3d49e6b7	0.049292292
227	0xbc8476ad	-0.01616987
228	0x3cdf14e8	0.027231649
229	0x3d5b5b12	0.05355365
230	0x3d67295b	0.056435924
231	0xbca5a798	-0.020221516
232	0xbccece74	-0.025244929
233	0xbc519b89	-0.01279343
234	0x3d4340ea	0.04766933
235	0x3c3b9812	0.011449831
236	0xbbc3de2e	-0.0059774136
237	0xbbb637b7	-0.005560841
238	0xbc6c05f3	-0.014405715
239	0xbd03b04a	-0.032150544
240	0x3c3d16f0	0.011541113
241	0x3ce329af	0.027729837
242	0x3d09d386	0.03364899
243	0xbd0bd053	-0.03413422
244	0x3d4f07bb	0.05054448
245	0xbd08b2d9	-0.033373687
246	0x3bf0b600	0.007345915
247	0x3c7313d0	0.014836267
248	0x3c9ca932	0.019123647
249	0xbcf9c6f9	-0.030490385
250	0x3d05174f	0.032492932
251	0x3d26f563	0.040761363
252	0xbd31abd7	-0.04337677
253	0x3b6c05ce	0.0036014202
254	0xbd2a6791	-0.041602675
255	0x3cb909d9	0.022587704

bias f4 [64]
0	0xbd0ad2fd	-0.03389262
1	0x3c6bc6c8	0.014390655
2	0xbd41d4bc	-0.04732202
3	0x3c17bd9e	0.009261517
4	0xbcdc91a5	-0.026924917
5	0x3d2ad6bd	0.041708697
6	0x3cb70701	0.022342207
7	0x3ab0e501	0.0013495983
8	0x3b041aae	0.0020157504
9	0x3d513441	0.051075224
10	0xbcde708c	-0.027153276
11	0xbcf3d334	-0.029763795
12	0x3bd4751f	0.0064836885
13	0xbac022d2	-0.0014658815
14	0x3c46139a	0.012089634
15	0x3d2b379f	0.04180109
16	0xbd2ffcb3	-0.042965602
17	0x3d19ff3b	0.037596922
18	0xbc501664	-0.012700651
19	0xbbcb012b	-0.0061952076
20	0xbcc772ae	-0.024346676
21	0x3cba67b8	0.022754535
22	0xbd1b83a7	-0.03796735
23	0xbd6bf380	-0.057605267
24	0x3d2623a8	0.04056135
25	0xbcacd1d8	-0.021096155
26	0x3d4b4a0d	0.049631167
27	0x3d19fa9c	0.037592515
28	0xbd15a10b	-0.036530536
29	0x3d1223e1	0.035678748
30	0xbd45119e	-0.048112504
31	0x3d09dea9	0.03365961
32	0xbcfcee32	-0.0308753
33	0x3bc58cde	0.0060287556
34	0x3d6b0fee	0.05738824
35	0xbcb038da	-0.021511484
36	0xbc6b6d83	-0.014369371
37	0xbd2791ae	-0.040910415
38	0xbae65383	-0.0017572496
39	0x3d52be62	0.051451094
40	0xbd02e187	-0.03195336
41	0xbceaaa55	-0.028645674
42	0x3d5799d5	0.05263694
43	0x3c84f320	0.016229212
44	0x3c81d4c6	0.015848529
45	0x3c5eead1	0.013605789
46	0xbbf7fe58	-0.007568162
47	0xbbd31209	-0.006441359
48	0xbd618f3f	-0.05506825
49	0xbd047eb2	-0.03234739
50	0xbc0b9332	-0.008518981
51	0x3c2949cf	0.010332539
52	0x3d1f16c2	0.038840063
53	0x3d1bc60a	0.03803066
54	0x3c482ad2	0.01221724
55	0x3c4cda66	0.012503242
56	0x3d24b927	0.040215638
57	0x3ca345ca	0.019930739
58	0x3d15ebaa	0.0366017
59	0xbcee959a	-0.02912407
60	0xbc1a3e0d	-0.009414208
61	0x3c6d4b40	0.014483273
62	0xbca3516d	-0.019936288
63	0xbc8a214e	-0.016861584

weight f4 [128, 1024]
0	0x3c6d7ba4	0.01449481
1	0x3aa70dc0	0.0012745187
2	0x3c6893d8	0.014195405
3	0xbbab4cf0	-0.0052276775
4	0x3a9c16e0	0.0011908673
5	0xbc89c3fc	-0.016817085
6	0xbced891a	-0.02899604
7	0xbcf24b88	-0.029577032
8	0xbca0593e	-0.019573804
9	0x3c9820bc	0.018570296
10	0xbca8ab5a	-0.02058952
11	0x3c572ab4	0.01313274
12	0x3c60d364	0.013722274
13	0xbba53388	-0.0050415434
14	0xbcc01178	-0.02344583
15	0xbc7a2330	-0.015267178
16	0x3c00d2d4	0.007862765
17	0x3c3025d8	0.01075121
18	0x3cf61b74	0.030042388
19	0xbc3598cc	-0.011083793
20	0x3c7ed77c	0.015554305
21	0xbce8a0cc	-0.028396986
22	0xbc61fcdc	-0.0137931965
23	0x3cc0e1fc	0.023545258
24	0xbcdc3f86	-0.02688576
25	0x3a06dc80	0.00051445514
26	0xbc3a2cdc	-0.011363234
27	0xba966860	-0.0011475198
28	0xbcacc456	-0.021089714
29	0xbcfc6002	-0.030807499
30	0xbc4c0da4	-0.012454424
31	0xbc7118ec	-0.0147154145
32	0xbc137f44	-0.00900251
33	0x3bc58708	0.00602806
34	0x3c874a60	0.016514957
35	0xbc1c9fd4	-0.00955959
36	0x3b9ead78	0.0048424564
37	0xbc989b90	-0.018628865
38	0xbcf95436	-0.030435663
39	0xbc80e6ee	-0.015735116
40	0x3c7e1bdc	0.015509572
41	0xbcaa528c	-0.020791315
42	0x3c82d670	0.015971392
43	0xbc9f1b26	-0.019422125
44	0xbc68e8f8	-0.0142157
45	0xbc590500	-0.013245821
46	0xbc0f77a8	-0.008756556
47	0xbc858456	-0.016298454
48	0x3c8b8130	0.017029375
49	0xbb9ad4b0	-0.0047250614
50	0x3c307da8	0.010772146
51	0x3ca7b8f6	0.020473938
52	0xbcaec690	-0.021334916
53	0xbc610bac	-0.013735693
54	0xbce2ad8a	-0.02767064
55	0x3bb1cd78	0.005426105
56	0x3a87e700	0.0010368526
57	0x3a66b040	0.0008800067
58	0x3cd84626	0.026400637
59	0x3ca77fdc	0.02044671
60	0x3ba9fd10	0.005187638
61	0xbc02da84	-0.0079866685
62	0xbc91e91e	-0.017811354
63	0xbc80c5a4	-0.015719242
64	0x3cac58d0	0.021038443
65	0x3c0f61fc	0.008751389
66	0xbcd44fcc	-0.025916956
67	0xbc689f28	-0.014198102
68	0x3aefe3a0	0.001830209
69	0x3c847f80	0.016174078
70	0x3ccb3b6c	0.024808608
71	0x3ce05fac	0.02738937
72	0xbc961d86	-0.018324625
73	0xbc786334	-0.015160371
74	0x3c0fef40	0.008785069
75	0x3c1cbcf4	0.009566534
76	0xbcdad89c	-0.026714616
77	0xbc016114	-0.00789668
78	0xbcbed506	-0.023294937
79	0xbcc8197a	-0.02442621
80	0xbc4e93f8	-0.012608521
81	0xbccf505e	-0.025306877
82	0xbccbadf2	-0.024863217
83	0xbc2c7694	-0.010526318
84	0x3cb059d0	0.021527201
85	0xbcbe0ff0	-0.023200959
86	0x3c5c21a0	0.013435751
87	0x3b61f740	0.0034479648
88	0x3ca75f50	0.02043119
89	0x3caf8cf2	0.021429513
90	0xbbaf86a0	-0.0053566247
91	0x3ca8ee2c	0.020621382
92	0x3cde5e3c	0.027144544
93	0x3c0a215c	0.008430805
94	0x3c14b87c	0.009077188
95	0x3c9ce2c0	0.019151092
96	0x3abca700	0.0014393032
97	0xbcb19e90	-0.021682054
98	0x3c66ef6c	0.014095169
99	0x3cb74468	0.022371486
100	0x3bfc08a0	0.007691458
101	0x3cba3ca8	0.022734001
102	0x3ce7d486	0.028299581
103	0xbbdc7890	-0.0067282394
104	0xbb134ce0	-0.002247624
105	0x3c39d338	0.011341862
106	0x3c56d8b4	0.0131131895
107	0x3cb32714	0.02186922
108	0x3bc68ff0	0.006059639
109	0x3c8e6db8	0.017386302
110	0x3cebb8d0	0.028774649
111	0xbcb0eece	-0.021598246
112	0xbab7a920	-0.0014012195
113	0x3cf823ca	0.030290503
114	0xbce7bef0	-0.028289288
115	0xbc8d3bfa	-0.017240513
116	0xbcaa10ae	-0.020759907
117	0xbcd531b8	-0.026024684
118	0x3c2cdbc0	0.010550439
119	0xbcf317e2	-0.029674474
120	0xbc487b9c	-0.012236502
121	0xbbec4c10	-0.007211216
122	0x3b02ef30	0.0019978993
123	0x3c87fe6c	0.01660081
124	0xbc01da30	-0.007925555
125	0x3ca4effe	0.020133968
126	0xbc80f9f6	-0.01574419
127	0xbcb87106	-0.022514831
128	0xbc80859a	-0.015688706
129	0xbcc202be	-0.023682948
130	0xbc6a86c8	-0.014314361
131	0x3bcc6cb8	0.006238546
132	0x3b677e80	0.0035323203
133	0xbb31a240	-0.0027104765
134	0x3c1c8c30	0.009554908
135	0x391ce300	0.00014961883
136	0x3b4ac550	0.0030940361
137	0xbcba3506	-0.022730362
138	0xbcc34e48	-0.023841038
139	0x3bdd18a0	0.0067473203
140	0x3b9f2b68	0.0048574694
141	0xbcb94638	-0.02261649
142	0x3c6a4dcc	0.014300775
143	0x3c2f714c	0.010708164
144	0x3caaab4c	0.020833634
145	0x3b4d4650	0.0031322427
146	0x3cbe8b12	0.023259673
147	0x3c8cbb24	0.01717908
148	0x3cc03024	0.023460455
149	0xbca36384	-0.019944914
150	0x3ce4b482	0.027918104
151	0x3b2a8dc0	0.002602443
152	0x3cc37236	0.023858171
153	0x3bca3ed8	0.0061720423
154	0x3c60dc50	0.013724402
155	0x3cabf90a	0.020992775
156	0x3c472bc8	0.012156434
157	0x3a50a340	0.00079588965
158	0xbb49d780	-0.0030798614
159	0x3c6fbbe8	0.014632203
160	0x39c68d80	0.0003787093
161	0xbcffc966	-0.031223964
162	0x3ca3e5e8	0.020007089
163	0xbcde894c	-0.027165078
164	0x3ca373fc	0.019952767
165	0x3ca88224	0.020569868
166	0x3b475f80	0.0030421913
167	0x3c294fd0	0.01033397
168	0xbce62c32	-0.028097246
169	0xbbbbe680	-0.005734265
170	0xbc9fcde2	-0.019507352
171	0xbc75f854	-0.015012819
172	0xbb9ba7f8	-0.004750248
173	0x3c97ec64	0.018545337
174	0x3ceeb1a6	0.029137444
175	0xbbbe0bc8	-0.0057997443
176	0x3c977120	0.01848656
177	0x3a7fe600	0.00097617507
178	0x3c85938c	0.016305707
179	0x3cd3be46	0.025847565
180	0x3ab8d240	0.0014100745
181	0x3c231428	0.009953536
182	0xbc3c0ac8	-0.01147718
183	0x3be1c548	0.006889973
184	0x3cad1aa8	0.021130875
185	0x3c946b78	0.018117651
186	0xbce1e18a	-0.027573366
187	0xbcf6bc82	-0.030119184
188	0x3cb678a8	0.02227433
189	0x3ca1426e	0.019684996
190	0xbc0c6458	-0.008568846
191	0x3ba61470	0.0050683543
192	0x3ce76400	0.028245926
193	0x3cedddd0	0.029036433
194	0x3c9ffd0a	0.019529838
195	0x3c9b7f78	0.01898168
196	0xbbbc7da8	-0.005752284
197	0x3c38d0b8	0.011280231
198	0x3cb34044	0.02188123
199	0xbc74a674	-0.014932264
200	0x3cec1fc2	0.028823737
201	0x3c4067d4	0.011743505
202	0xbc2c5058	-0.010517202
203	0xbc431b80	-0.011908412
204	0xbc7bf508	-0.015378244
205	0x3cbabad2	0.022794161
206	0x3c5a3340	0.013317883
207	0x3cc5cb9c	0.02414494
208	0xbbd7e548	-0.0065886118
209	0xbcca023a	-0.024659265
210	0xbca994da	-0.02070086
211	0x3b9a5fe0	0.004711136
212	0xbcd341a4	-0.025788136
213	0xbaedeb60	-0.0018151812
214	0xbca0bf64	-0.019622512
215	0xbcffbdd0	-0.03121844
216	0x3c95696e	0.01823875
217	0x3ce995a2	0.028513733
218	0xbc410ee4	-0.011783335
219	0xbca839a6	-0.020535301
220	0xbca29510	-0.01984647
221	0x3bb86668	0.005627442
222	0xbbcc1628	-0.006228227
223	0xbc5854fc	-0.013203856
224	0x3b8cca18	0.0042965524
225	0xba9beec0	-0.0011896715
226	0x3c8e0796	0.017337602
227	0x3b2d2410	0.00264192
228	0x3c97cc20	0.018529952
229	0x3cf220f8	0.029556736
230	0xbcfd9e8c	-0.03095939
231	0xbcb1966a	-0.021678168
232	0xbc8161b2	-0.015793655
233	0x3c1ea194	0.009682078
234	0xbc885df0	-0.016646355
235	0x3c84b89c	0.01620131
236	0xba0738c0	-0.0005158298
237	0x3cecd7fe	0.028911587
238	0x3c9d0962	0.019169513
239	0xbcd1e028	-0.025619581
240	0xbc333d04	-0.01093984
241	0xbce03f12	-0.027373824
242	0x3b556210	0.003255967
243	0xbca3c6ba	-0.019992221
244	0xbc0faa2c	-0.0087685995
245	0x3bdf18d8	0.0068083815
246	0x3c668e40	0.014072001
247	0x3ccee78a	0.02525689
248	0x3cf7b7e4	0.030239053
249	0x3c586d88	0.013209708
250	0x3cb970ac	0.022636734
251	0x3c266734	0.0101564415
252	0x3c28ad4c	0.010295223
253	0xbcbcf4e6	-0.023065995
254	0xbc90f008	-0.01769258
255	0x3c5acd64	0.013354633

bias f4 [128]
0	0xbc3ee514	-0.011651296
1	0xbca9b210	-0.02071479
2	0xbc4817a4	-0.012212668
3	0xbc0e0540	-0.008668244
4	0xbcffdae0	-0.031232297
5	0x3cf3988a	0.029735822
6	0x3c59e468	0.013299085
7	0xbc6312b0	-0.013859436
8	0x3c95f006	0.018302929
9	0xbcb4a0d0	-0.022049338
10	0xbc583718	-0.013196729
11	0x3cdba5d6	0.026812475
12	0xbc0cb92c	-0.00858907
13	0xbcb12c06	-0.021627437
14	0xbcdb7510	-0.026789218
15	0x3ade7e60	0.0016974919
16	0x3cbe5bcc	0.023237132
17	0x3b92a4d0	0.0044752136
18	0x3b8820d8	0.004154306
19	0xbc2ff01c	-0.010738399
20	0xbb919fe0	-0.0044441074
21	0x3cecb2bc	0.028893821
22	0xbcb5b288	-0.022179857
23	0xbc8e59e2	-0.017376844
24	0x3a4eaf00	0.00078843534
25	0xbb9ed138	-0.004846718
26	0x3cb34c04	0.021886833
27	0xbc9f53ec	-0.019449197
28	0x3bb7caf0	0.005608909
29	0x3c0f43dc	0.008744206
30	0x3c063f50	0.008193806
31	0xbc80bbc2	-0.01571453
32	0x3c501194	0.012699503
33	0xbcd38bc8	-0.025823489
34	0xb7945000	-1.7680228e-05
35	0xbb908c08	-0.0044112243
36	0x3c021650	0.00793989
37	0xbccc1852	-0.02491394
38	0x3ce47ede	0.027892526
39	0xbafe14a0	-0.0019384809
40	0x3cd94cc8	0.02652587
41	0x3cef23fa	0.02919196
42	0x3c869f5e	0.016433414
43	0x3caed8fa	0.021343697
44	0x3cff29e6	0.031147908
45	0x3cdb66ec	0.026782475
46	0xbcd3e090	-0.025863916
47	0xbc934cfa	-0.017981041
48	0x3ca31a48	0.019909993
49	0x3c61d4d4	0.013783652
50	0x3c1a5ae4	0.009421084
51	0x3cc23968	0.023709014
52	0x3ce9aa0c	0.028523467
53	0xbc5a0740	-0.013307393
54	0x3c9b50a6	0.018959355
55	0x3ccd5584	0.025065191
56	0xbc1ad400	-0.009449959
57	0x3c820c3a	0.01587497
58	0xbb9c0188	-0.0047609247
59	0xbac5ad80	-0.0015081614
60	0x3b5b3c00	0.003345251
61	0x3cdfcb04	0.027318485
62	0x3b44cc60	0.0030029044
63	0xbcb2dd9a	-0.021834183
64	0xbc7f2984	-0.015573863
65	0x3c9eeac0	0.019399047
66	0x3c8c5288	0.017129198
67	0x3c8bec04	0.017080314
68	0xbc2dfdf8	-0.010619633
69	0x3c1b8f64	0.009494636
70	0x3bc3b000	0.0059719086
71	0x3c1750cc	0.009235572
72	0x3c8df3bc	0.017328136
73	0xbafbd360	-0.0019212775
74	0xbca4a20c	-0.020096801
75	0xbc1ae5c8	-0.009454198
76	0xbcaab33c	-0.020837419
77	0x3a9ddf20	0.0012044646
78	0xbce12982	-0.027485613
79	0xbcd0fea4	-0.025512047
80	0x3cef0a08	0.029179588
81	0x3c73fd34	0.014891911
82	0x3c7a692c	0.015283864
83	0xbca17fca	-0.019714255
84	0xbc20f734	-0.009824563
85	0x3cc2cca8	0.023779228
86	0x3ccc51f2	0.024941418
87	0x3ca5500a	0.020179767
88	0xbce61d1e	-0.028090056
89	0xbc3e1c60	-0.011603445
90	0xba0bb500	-0.00053294003
91	0x3ce3a046	0.027786385
92	0x3c362164	0.011116359
93	0xbc07bcc0	-0.008284748
94	0xbcabc1a8	-0.020966366
95	0xbbe5d280	-0.007013619
96	0xbc83d03e	-0.016090509
97	0xbc17d280	-0.009266496
98	0x3cf34948	0.02969803
99	0xbca8fdda	-0.020628858
100	0xbb531280	-0.0032207072
101	0x3c32351c	0.01087692
102	0x3cdb204a	0.026748795
103	0x3cdb1d9e	0.026747521
104	0xbcb6b1bc	-0.022301547
105	0x3ce78e74	0.02826617
106	0x3a1b58c0	0.00059260055
107	0x3ce531f8	0.027977929
108	0x3c73732c	0.014859002
109	0x39b97880	0.0003537573
110	0xbc06cad0	-0.008227065
111	0xbcaf5a90	-0.021405488
112	0xbc8df5be	-0.017329093
113	0x3cc77490	0.024347574
114	0x3cb093ca	0.021554846
115	0xbce482e4	-0.027894445
116	0x3c6d3eb8	0.014480285
117	0xbca17e70	-0.01971361
118	0x3c4f3b88	0.012648471
119	0x3c6cf7dc	0.014463391
120	0xbb355af0	-0.0027672611
121	0x3c5bd05c	0.013416376
122	0x3cee345e	0.029077705
123	0x3c3072d4	0.010769565
124	0x3bbbbbd0	0.005729176
125	0x3bcc72d8	0.0062392764
126	0x3cb7783e	0.022396203
127	0xbcaa4c5a	-0.02078836

weight f4 [10, 128]
0	0xbcd26d68	-0.025686935
1	0xba30df95	-0.00067471835
2	0x3da5bf6f	0.08093154
3	0xbb69c656	-0.0035671196
4	0x3cc25720	0.023723185
5	0xbcb25a4e	-0.021771576
6	0xbd320d81	-0.04346991
7	0xbd99254f	-0.07477819
8	0x3db0f29d	0.08640025
9	0x3d7ddc13	0.061977457
10	0x3db3917b	0.087679826
11	0xbc5c6a1b	-0.013453032
12	0xbcbd2e19	-0.02309327
13	0x3c8103c4	0.015748866
14	0x3d61ae86	0.05509808
15	0x3c922f68	0.01784487
16	0x3c9f70ca	0.019462962
17	0xbd5fe884	-0.054665104
18	0xbd9bfca2	-0.07616545
19	0xbc8b18dc	-0.016979627
20	0xbb16ea8c	-0.0023027984
21	0x3d3c82d2	0.046023197
22	0xbd2cf5db	-0.042226654
23	0xbda7c34a	-0.08191545
24	0xbd625eea	-0.0552663
25	0xbca1966e	-0.01972505
26	0xbd43d773	-0.04781289
27	0xbdb039e6	-0.08604793
28	0xbcf8f3e9	-0.030389743
29	0xbc88fd94	-0.016722478
30	0xbd903aec	-0.070424885
31	0x3bd8faaf	0.0066216807
32	0x3cfe5516	0.031046432
33	0x3d46f1e8	0.048570544
34	0xbd8ebb2a	-0.069692925
35	0x3c87eab1	0.016591402
36	0x3d08c0b6	0.03338691
37	0xbd5fb80c	-0.05461888
38	0xbc1e5f34	-0.009666253
39	0x3d6a1a40	0.05715394
40	0xbd2c158c	-0.042012736
41	0xbd89f4b5	-0.06736127
42	0xbd9ea460	-0.07746196
43	0xbd97b7b2	-0.07408084
44	0x3cdb4064	0.026764102
45	0x3c8ac71f	0.016940651
46	0xbd99dc81	-0.07512761
47	0x3d9c0990	0.076190114
48	0x3d93fbc4	0.07225755
49	0x3ca76ce1	0.02043766
50	0xbd6dcc48	-0.058056146
51	0xbd82a53a	-0.06379171
52	0xbd1c7a62	-0.03820265
53	0xbd3f0ceb	-0.04664318
54	0xbd0ed158	-0.034867615
55	0x3a89e9d7	0.001052196
56	0xbd584402	-0.052799232
57	0x3d43da64	0.047815695
58	0x3d0c9f6f	0.034331735
59	0x3bca345f	0.006170794
60	0x3cab925b	0.020943811
61	0xbd6f1fc2	-0.058379896
62	0x3c6eeaec	0.014582377
63	0x3d4768ae	0.048683815
64	0xbdad76c2	-0.08469917
65	0x3b8958cc	0.0041914936
66	0x3cde1e20	0.027113974
67	0x3cd51fac	0.026016079
68	0xbd8396c1	-0.064252384
69	0x3c9de825	0.019275734
70	0x3d23f6cf	0.040030297
71	0xbbcd5038	-0.0062656663
72	0xbd019001	-0.031631473
73	0xbd2d9163	-0.04237498
74	0x3dada787	0.08479219
75	0xbb6726c3	-0.0035270907
76	0x3c89ca9e	0.016820248
77	0xbdad55ae	-0.08463608
78	0xbd6c09c1	-0.05762649
79	0xbd3a5ced	-0.045498777
80	0x3d7b077a	0.061286427
81	0x3c829282	0.015939001
82	0x3cbdab4c	0.02315297
83	0xbce1dc0e	-0.02757075
84	0xbd353418	-0.044239134
85	0x3da52e8b	0.08065518
86	0xbcc928c0	-0.024555564
87	0x3d319dd4	0.043363407
88	0x3c3406ec	0.010987978
89	0x3d2dbc96	0.042416178
90	0x3d544925	0.05182757
91	0xbd2c9db8	-0.0421426
92	0xbdb36aa1	-0.08760572
93	0x3aa8e2fc	0.001288503
94	0x3d801c41	0.06255389
95	0xbda21064	-0.079132825
96	0xbcfb2ce9	-0.030661063
97	0x3da48387	0.08032899
98	0x3d6e8dd1	0.058240715
99	0xbd35c8da	-0.044381
100	0x3d2c6653	0.04208977
101	0xbc5b6f2b	-0.013393204
102	0x3d285141	0.041093115
103	0xbd9a7fd4	-0.075439125
104	0xbd763678	-0.06011054
105	0xbcb11acd	-0.021619225
106	0x3bce6bc5	0.006299468
107	0x3c463a23	0.012098822
108	0x3c7d898d	0.015474689
109	0x3d013f02	0.03155423
110	0xbb4a6b42	-0.0030886685
111	0x3d64dab6	0.05587264
112	0xbcd338cf	-0.025783924
113	0x3dab238d	0.0835639
114	0xbd593472	-0.05302853
115	0x3d8c0c78	0.06838316
116	0xbd813fb7	-0.06310981
117	0x3da050e0	0.07827926
118	0x3c8ffc59	0.017576383
119	0xbdaa5dd1	-0.08318675
120	0x3d856c8e	0.06514846
121	0x3beb942a	0.0071892934
122	0x3db2ae40	0.08724642
123	0xbdb27d65	-0.08715323
124	0x3dab945a	0.08377905
125	0x3db3ea05	0.0878487
126	0x3d6cf4d3	0.05785067
127	0x3d0e43b9	0.034732554
128	0x3d6d27c7	0.057899263
129	0xbbc33c6e	-0.0059581315
130	0x3d244b43	0.040110838
131	0xbd51f4ca	-0.05125884
132	0xbd31528e	-0.04329162
133	0x3d333d41	0.04375959
134	0x3d9149a6	0.070941254
135	0x3cbaf0e6	0.022819947
136	0xbd8caeaf	-0.06869256
137	0x3d6c1903	0.05764104
138	0x3d994188	0.07483202
139	0xbb7d61bb	-0.0038662988
140	0xbd5ccbe2	-0.053905375
141	0xbd8b06e0	-0.06788421
142	0x3d0e6423	0.034763467
143	0xbdac9384	-0.08426574
144	0xba6c2bc0	-0.0009009205
145	0x3d36fd26	0.044675015
146	0xbafc50ca	-0.0019250151
147	0x3d5ed8de	0.05440604
148	0x3d8659b5	0.06560079
149	0x3c3b7542	0.011441531
150	0x3cfad414	0.030618705
151	0xbc5b3957	-0.01338037
152	0xbbaeff8b	-0.0053405217
153	0xbd4303d9	-0.04761109
154	0xbd05d216	-0.032671057
155	0x3d72563f	0.059164282
156	0x3d901f6c	0.07037243
157	0x3d56d0d8	0.052445263
158	0xbd2164bc	-0.03940271
159	0x3c46d931	0.012136743
160	0xbd0c7363	-0.03428973
161	0x3d501d42	0.050809152
162	0xbd31a32d	-0.043368507
163	0xbd2bb7e9	-0.041923437
164	0xbd8770cf	-0.066133134
165	0x3d45fc6e	0.04833644
166	0xbd4f1b8a	-0.050563373
167	0xbc96874f	-0.018375067
168	0x3d288895	0.04114588
169	0xbd7362d8	-0.059420437
170	0xbb29d90e	-0.0025916728
171	0xbc96089a	-0.018314648
172	0xbd02ef07	-0.031966235
173	0xbd6600ae	-0.056152992
174	0x3d54fd8b	0.05199961
175	0xbcf126e2	-0.029437486
176	0x3c9390ce	0.018013384
177	0xbd8035f6	-0.06260292
178	0xbd208b93	-0.03919561
179	0xbda35788	-0.0797568
180	0xbdb00bcf	-0.08596002
181	0x3c58441e	0.013199834
182	0x3c3184b1	0.010834859
183	0xbda4dbe2	-0.08049752
184	0x3c1c63fd	0.009545323
185	0xbda92fb4	-0.08261052
186	0x3da3556d	0.07975278
187	0x3da11857	0.078659706
188	0xbda87f72	-0.08227433
189	0xbd0a8d4b	-0.033826154
190	0x3c6e33df	0.014538734
191	0xbc4dbfc4	-0.0125579275
192	0x3c121a75	0.008917441
193	0x3dac801f	0.08422875
194	0x3d8aabd5	0.067710556
195	0x3dae4e32	0.08511008
196	0xbd9dd5c1	-0.07706786
197	0xbb7f8ab1	-0.0038992579
198	0x38a17c4a	7.700229e-05
199	0xbd9a4229	-0.0753215
200	0xbd913eb6	-0.07092039
201	0xbc0efa0e	-0.00872661
202	0x3d8c01d8	0.06836289
203	0xbc9d815f	-0.019226728
204	0xbd7ca3dd	-0.06167971
205	0x3c292ab6	0.0103251245
206	0xbd672876	-0.05643507
207	0x3d12c9e0	0.035837054
208	0xbd08af11	-0.03337008
209	0x3d0b9fd4	0.03408797
210	0x3da68709	0.08131225
211	0xbd353bc3	-0.044246446
212	0x3c4960d0	0.012291148
213	0xbd87f263	-0.066380285
214	0xbcff818b	-0.0311897
215	0x3d8d30b8	0.06894058
216	0x3d5c462f	0.05377787
217	0xbd41fca9	-0.047360096
218	0xbd9d4a74	-0.076802164
219	0x3d51622a	0.051119007
220	0x3b3b2e27	0.0028561444
221	0x3a1bb670	0.0005939966
222	0xbd74d329	-0.05977169
223	0x3d95ab3e	0.073080525
224	0xbdb4b93f	-0.088243954
225	0xbc684825	-0.014177357
226	0xbd6ad42a	-0.05733124
227	0xbcb79e72	-0.02241442
228	0xbd666f30	-0.05625838
229	0xbd17c5ac	-0.03705375
230	0xbc9a104b	-0.018806597
231	0x3d09b776	0.033622228
232	0x3b3518ed	0.0027633265
233	0xbc92a107	-0.01789905
234	0x3d890538	0.066904485
235	0xbda6212a	-0.08111794
236	0xbd35e8f5	-0.04441162
237	0xbd59e8ab	-0.053200405
238	0x3d820ff3	0.06350698
239	0xbcc31222	-0.023812357
240	0x3b4cce06	0.003125073
241	0xbb6a91a1	-0.0035792368
242	0xbd89ae58	-0.067227066
243	0xbda16ae6	-0.078817174
244	0xbd7eac7b	-0.06217621
245	0x3d86b311	0.06577123
246	0xbd73a208	-0.059480697
247	0x3d594b32	0.053050227
248	0x3d000715	0.031256754
249	0x3d362277	0.044466462
250	0xbd53aeaa	-0.051680245
251	0xbc3cc1a5	-0.011520778
252	0xbd9a63c4	-0.0753856
253	0x3d4cc46c	0.04999201
254	0xbb403f84	-0.0029334733
255	0xbd97cf17	-0.07412546

bias f4 [10]
0	0xbc8f11f7	-0.017464621
1	0x3d597ee1	0.053099517
2	0x3b969338	0.0045951866
3	0xbc38e7ce	-0.011285735
4	0xbd56d253	-0.052446675
5	0x3d878541	0.06617213
6	0x3d628d9e	0.055310838
7	0xbdb40516	-0.087900326
8	0xbd45a34a	-0.048251428
9	0x3bc7bb11	0.006095298
